model_best.pt (torch, 65593 bytes, 5 tensors)

net.0.weight f4 [128, 56]
00000000: 76dd 8d3b f6fa f13b a3f2 683e 0860 a33d
00000010: b563 073e b81e 5f3d 8879 bfbd 008b d33c
00000020: 8d70 1b3e 9606 cebd 9b2d b43d c70e ea3d
00000030: c42b 513c b7bd 003e 0853 ba3d d75a 2cbd
00000040: 149d 99bd 4f0c dd3d e7fd 613b a534 35bd
00000050: eab3 32bd 241b 883d b945 013e 1635 31bc
00000060: 01e1 703d 90c5 07bd cd73 773d c629 8f3d
00000070: 2e5c 0bbe edf9 713d 4553 0dbe d36a 8dbd
00000080: e16f 81bd 8f6d 093d bbe5 1e3d f73b 913d
00000090: e4af c6bd d75b c1bd 54bf ee3d 3ffa c43d
000000a0: d52f 0ebc 05b2 cabd f52d 1d3d 66a2 7fbd
000000b0: c943 8abc 8d13 b23b 1a02 163e 7325 04be
000000c0: 39c2 eabd 8d75 a6bd 254e babd dd8e cd3c
000000d0: 1757 f13c b649 05be 9130 e13c 5de6 943d
000000e0: 9821 eabc fcc1 20bd 5f20 f0bd f8a9 1ebe
000000f0: 9475 c9bd a3f4 4b3d 0eb1 aa3d 37e6 0f3e
00000100: a9f2 05bd 9db1 353e ad67 83bd f4f0 6a3d
00000110: 35cb 88bd 6c3e d13d 91b6 533d 06e0 68bd
00000120: 6a79 01be 3a01 ae3d eebd bb3d 5a67 dd3d
00000130: 6c1c e4bd 86d1 5d3d 390d 203d 21da b33d
00000140: 0343 f83d 06a8 013e 9b5a 17be 5a29 99bd
00000150: 873d 18bd 7852 163d 9d78 57bd be1c 9fbd
00000160: 6984 32bd 5f83 df3d e0e7 51bd 7a8a 1ebd
00000170: f0cd 463b 408f 9e3c cdb6 b93d 8841 a6bb
00000180: 4e88 acbd 0d87 a23c cfdf 353d c6ba 923d
00000190: 8341 ae3c bfb3 923d 9be6 e1bd 3846 5cbd
000001a0: fb17 cd3d 58ad 933d 6517 843d a672 94bc
000001b0: 8f13 243d 46e3 9d3d de92 1b3d dd62 5e3c
000001c0: 574c c3bd d198 3c3d a4a2 c5bd c3eb f5bd
000001d0: d0a7 653d 4e21 babd cfa4 b2bd b021 e3bd
000001e0: e0a1 b6bd b92c 36bc f23a 0bbe 99ec ba3c
000001f0: fb77 e13d b6a7 17be ad36 05be 5d8e 173d
00000200: 39c6 cebc d542 b33d ca90 1abd 0801 c13d
00000210: adf8 e23d 367a 503d 3d3c 13bb 55ee dabd
00000220: e426 a23d 3265 0bbd 6eb3 253d 9a33 373c
00000230: 47da eebd 9faa d3bd 890d 8e3a dd9b 343d
00000240: 2ae9 023d 9dc0 703d de3e f9bd 0eff 063e
00000250: 9606 f83d 7558 e1bd 2326 b2bd 8a66 61bc
00000260: 9a79 c23d 9edb a4bd 3b4d 12be a928 813d
00000270: 0a53 753d f5b5 963d d895 18bc e4a6 463c
00000280: ef8c 78bd 0843 093e 7204 d3bc 7e93 073e
00000290: 8d60 0f3e 0c51 fa3d f923 a83d 9974 9bbd
000002a0: a24d 7d3c 696a 053d d945 ed3d e33f cf3d
000002b0: 3ea5 ccbd c488 8f3d 4c68 a8bc 4d8f 19be
000002c0: be86 963e 17a1 92bd 4b4b e23c e38a 0a3d
000002d0: eb9f 0d3d e215 74bd 5843 b43d 9f98 2b3d
000002e0: 86f4 04bd 9882 7b3d 2406 953d b0c5 033c
000002f0: cf4d 91bd dffe 7ebd 3028 e6bc 5717 fc3d
00000300: 1032 8dbd 5dc4 e83d 3e3b 75bc 2af5 0e3e
00000310: 49da 96bd 4869 ba3d 9b66 283d 0292 ae3d
00000320: 3ba1 09bd 07a0 a0bd 9ae3 ce3d 9a2b 6ebd
00000330: 4f14 593d 25f3 29be 7691 8f3d a19a de3c
00000340: 6755 d3bd e44e 87bb 4e61 da3c c016 d03d
00000350: 193d f7bc 6c9a 0ebd 8906 c3bd 4364 b0bb
00000360: da20 993d 03f8 5ebd 2e17 96bc c89a 29bb
00000370: 1c25 edbc 36b1 9a3d d6e9 f43d 77de 6abc
00000380: e605 1b3e e212 f5bc 6e33 663d 047a 5f3e
00000390: 9cce d63d 19b7 403d 9082 063e 792e a33d
000003a0: 297f 8e3d 326b ffbd af19 043e 8d24 a93d
000003b0: 7ef2 1e3d 6db8 9bbc c9c4 d3bd 2bc2 bc3d
000003c0: f21f 94bc 1806 783d 425c dcbc 31f2 b1bd
000003d0: 6410 153e f01b 5b3d 0778 22bc 4c0c 8e3d
000003e0: 104a 763d 59e3 c2bd 3fe2 aa3d 3f2c e43d
000003f0: 0587 813d ff63 0a3d 18ec 3e3d 78ad 193d
0.0043293787 0.007384653 0.22748809 0.07977301 0.13221629 0.054472655 -0.09349352 0.025823116
0.15179653 -0.1005985 0.08797761 0.114286 0.012766782 0.1257237 0.09097868 -0.04207882
-0.075006634 0.10793363 0.0034483613 -0.04423966 -0.04362861 0.06645802 0.12624253 -0.010815879
0.05880833 -0.033147395 0.06041317 0.069903895 -0.13609383 0.05907624 -0.13801296 -0.06905141
-0.06320167 0.03355175 0.038793307 0.070915155 -0.09701517 -0.09441345 0.11657587 0.09618043
-0.008678396 -0.09897236 0.038373906 -0.062410735 -0.016878026 0.0054344595 0.14649239 -0.1290491
-0.11462826 -0.0812789 -0.09096936 0.025092537 0.029460473 -0.130164 0.027488979 0.07270501
-0.028580472 -0.039247498 -0.11724924 -0.15494525 -0.098368794 0.04979385 0.08334552 0.14052664
-0.032702122 0.17743535 -0.06416259 0.057358697 -0.06679384 0.10216984 0.05168778 -0.05685427
-0.12643972 0.08496328 0.091670856 0.10810728 -0.111382335 0.054154895 0.03907511 0.08781839
0.121221565 0.12661752 -0.14780657 -0.0747859 -0.037168052 0.036699742 -0.05260526 -0.07769154
-0.043583307 0.10913729 -0.051246524 -0.03870628 0.003033515 0.019355416 0.090680696 -0.00507373
-0.084244356 0.019839788 0.044402894 0.071645305 0.021271473 0.0716319 -0.11030313 -0.053777903
0.100143395 0.07210797 0.06449775 -0.018121075 0.040057715 0.077093646 0.03798186 0.0135733755
-0.09536045 0.046044175 -0.09650162 -0.120078586 0.05606824 -0.090883836 -0.08722841 -0.1109041
-0.08917594 -0.011119061 -0.13596705 0.022817897 0.110092126 -0.1481007 -0.13009138 0.037001003
-0.025241004 0.087529816 -0.037735738 0.09424025 0.110825874 0.0508978 -0.0022466325 -0.106899895
0.07917574 -0.034032054 0.04045432 0.011181736 -0.11662727 -0.10335278 0.0010837774 0.044093955
0.031960644 0.05877744 -0.12170194 0.13183233 0.12110631 -0.110032 -0.0869868 -0.013757357
0.0949585 -0.08049701 -0.14287274 0.063065834 0.059893645 0.07358924 -0.009313069 0.012124751
-0.06068128 0.13404477 -0.025758956 0.13239858 0.14001675 0.1222249 0.08209986 -0.075905986
0.015460404 0.032572184 0.11585588 0.10119607 -0.09992455 0.07008508 -0.020557545 -0.14996071
0.29399675 -0.07159632 0.027623793 0.03382386 0.034576338 -0.05959118 0.08801907 0.041893598
-0.03245976 0.06140384 0.07276562 0.008042738 -0.07094919 -0.062254783 -0.028095335 0.12309139
-0.06894314 0.11365578 -0.014967738 0.1396071 -0.07365853 0.09102112 0.041113477 0.085239425
-0.033601027 -0.07843023 0.10102005 -0.05814705 0.052997883 -0.16596659 0.07010166 0.027173342
-0.103190236 -0.0041292775 0.026657727 0.10160589 -0.0301805 -0.034815237 -0.09522731 -0.005383046
0.07476969 -0.05443574 -0.0183216 -0.002587961 -0.02894836 0.075533316 0.11958663 -0.014335266
0.15138969 -0.02991623 0.05620139 0.21823889 0.10488626 0.047049616 0.13135743 0.07967848
0.069578476 -0.12471618 0.12900423 0.08258925 0.038805477 -0.01900884 -0.10340268 0.09216722
-0.018081639 0.060552686 -0.02689946 -0.086887725 0.14557034 0.05349344 -0.009916312 0.06935939
0.060129225 -0.095160194 0.08343934 0.11141252 0.06324581 0.03378677 0.046611875 0.03751895

net.0.bias f4 [128]
00000000: 56ce d2bc d7e1 0f3e 5bd6 01be 5da5 abbd
00000010: 1715 7a3d a302 70bd 8b3f f93c 1a07 f53d
00000020: cbb5 a83d 1bd5 0cbe fd80 a7bd 97dc efbc
00000030: 6ba0 e8bc f418 303d e164 05bd 5f1e 4ebd
00000040: 6ee0 8fbd 9f2d 0e3e 883c 3cbd 1486 07bc
00000050: 7b06 babd ef46 1a3b 612d d03b c249 a1bc
00000060: 5ca3 1d3e 9e1c 993c 576c 32bb 4736 033c
00000070: f326 c83d 74bd 1f3e 485a 063e 6e71 a63c
00000080: b1f8 93bd 6251 233e c4ad b93d 5de6 ee3d
00000090: 74cf 3e3c 6885 fc3a ff76 1abc b57b 583e
000000a0: 0247 e53d d2ce 8dbd 0577 7c3d dfa3 b03d
000000b0: e774 e2bd 10e3 023d fc48 71bd ffe1 923d
000000c0: 635a 42bd 76bb 9c3d 2d53 b63d d355 06bd
000000d0: 8609 ab3d 0a35 ecbd 24b0 253e 665b cbbc
000000e0: 29f5 9abd 098c 4cbd c0d5 a0bd 6fd4 8d3c
000000f0: 9c45 3fbc b881 413d 049a 90bd 7642 f93c
00000100: b8af 4fbc 03c5 283e 432b fcbd 43d5 cdbc
00000110: 4a44 91bd 0a37 013e 8252 a43b 2afb 92bc
00000120: e179 603e b039 143e 0da7 a7bd 8536 1ebe
00000130: c784 b6bd b360 babc 7810 c7bd 96b4 c23d
00000140: 8d2b 03bd 53b7 2bbd 138c 033e 66cf 313c
00000150: 078a 513b 5036 fdbd e65e f33c 3254 3fbe
00000160: bddb d83c f1bc aebb 127f 0c3c 96fc 3dbd
00000170: 2261 043e 0d65 213e af49 d0bd 9af6 45bc
00000180: 683c 4abd a402 f0bd f75a edbc c212 02be
00000190: 7fa0 433e aecb 85bc 8799 d33d 2810 983d
000001a0: 7ff4 a9bc f9ba 8bbd 7e0b 5b3d 5596 d3bd
000001b0: 1139 463d d6fb 093d dd8d 013e 9340 113e
000001c0: 2c79 e23d 5f5a 123e 057a a6bc bf4e 3f3e
000001d0: 525e 5dbd 0b3e d0bd 6129 f1bd 3fe6 413e
000001e0: 8ee8 afbd 250e 103d 1f2c a3bd 8fae c43d
000001f0: f013 603d 0a27 28bd 8a25 d73d b62f 29be
-0.025733154 0.14050995 -0.12679426 -0.0838115 0.06105527 -0.058596265 0.030425807 0.11964245
0.08237799 -0.13753168 -0.081788994 -0.02927999 -0.028396806 0.042992547 -0.03256691 -0.050321933
-0.070252284 0.1388459 -0.045956165 -0.008271713 -0.09083267 0.0023540815 0.006353066 -0.01968849
0.15394348 0.018690404 -0.002722522 0.008008546 0.09773054 0.15599614 0.13120377 0.02031776
-0.072251685 0.15949014 0.09066346 0.11665032 0.01164614 0.0019265832 -0.009427785 0.2114094
0.11195184 -0.069242135 0.061636943 0.08625006 -0.110574536 0.031954825 -0.058907494 0.071720116
-0.04744948 0.07652943 0.08902583 -0.032796692 0.08351426 -0.11533554 0.16180474 -0.024823856
-0.07566292 -0.049938235 -0.078532696 0.01731321 -0.011674311 0.04724285 -0.07060626 0.030427199
-0.012676172 0.16481404 -0.12312939 -0.025126105 -0.07093103 0.12618652 0.0050147185 -0.01794203
0.21921493 0.14475131 -0.08186159 -0.15450485 -0.08912044 -0.022751188 -0.09719938 0.095071
-0.032023955 -0.04192288 0.12846403 0.01085267 0.003197314 -0.12363875 0.029708337 -0.18684462
0.026471967 -0.005332582 0.008575218 -0.046383463 0.12927678 0.15761204 -0.10170304 -0.01208272
-0.049374014 -0.11719254 -0.02897404 -0.12702468 0.19104193 -0.016332474 0.103320174 0.074249566
-0.020746468 -0.068227716 0.053477757 -0.10331408 0.048394267 0.033687435 0.12651773 0.1418479
0.11058268 0.14292286 -0.020321855 0.18682383 -0.05404503 -0.10168084 -0.117754705 0.18935488
-0.08589278 0.03516974 -0.079674 0.09603607 0.054706514 -0.041052856 0.10505207 -0.16522107

net.3.weight f4 [64, 128]
00000000: 0237 513d 3d95 693d a134 b9bc c7c1 453d
00000010: fb47 51bd 1aa9 993d ba19 c8bd 0015 59bd
00000020: 27c4 8ebc d3b0 f43c c683 08bc fad0 993d
00000030: ed01 1e3d d2b9 cebc 1d14 5dbd 74a6 823d
00000040: 62f9 953d 91b0 143d 2ecc 793c 6d5c d2bb
00000050: f43a 04bd 685f 6dbd 15b3 84bc 038b 87bd
00000060: c6be 9f3c 1ee6 4cbd d9e2 943d c3dc 5a3d
00000070: 5c35 c9bb 58c7 123d d06d e7bc 7668 b1bc
00000080: c41f 71bc 60a1 073c 0129 ebbb 5ce8 553d
00000090: 8022 fd3c 7c23 8e3c 7d95 8bbd df97 193d
000000a0: 1537 6e3c cc50 8abd ff9a 14bd 1562 cebc
000000b0: aa46 abbc acbf 983c 21bb cb3c 9858 843c
000000c0: 5ade 36bd 881c 7bbc 58e4 a43d 714c 99bc
000000d0: 14fc 75bd ba32 733d 4779 093c 9fd4 d3bc
000000e0: b8b7 da3b 9a37 723d acd4 bdbc 9619 713c
000000f0: d619 5dbd ae3a a43c 4028 12bc b973 a8bd
00000100: 0618 1d3d 1474 b1bd ee6b 9ebd b1eb 0cbd
00000110: f8d6 f23c 8b48 c0bc 5aa3 383c 6505 673a
00000120: 4f5e 433c 43a0 073c 67c8 98bd c5cc 583d
00000130: 3367 b83c 7db2 b5bb c914 acbc c2c0 8f3d
00000140: e779 b4bd a1f6 0e3d 1f02 84bc aeb5 94b9
00000150: 778c 34bd 5093 4c3d edde 3c3c d609 973d
00000160: 407a 2a3d fb66 273d d230 973d e19f 95bd
00000170: 084c 493d ad06 833d 090d 443d 66b4 91bd
00000180: 03cc 6c3d 2916 1cbd 75eb b7bd 7231 db3c
00000190: f6f9 18bd 6820 c4bb c65b 68bd 0987 ac3b
000001a0: d06c ee3c 40d0 82bd b8a4 bfbb 7748 4e3b
000001b0: b782 613d 85b1 86bc df5a f73c 19a0 9bbd
000001c0: a77d 81bc ca47 d53c a717 c1bc 7af6 c53c
000001d0: 708a c0bd 7fe0 313d 5b96 543d ec55 0dbe
000001e0: a572 ad3d a443 853d 8744 a5bd 8b84 d4bd
000001f0: 7294 9e3d b174 7cbd 70c9 713d 0a75 923d
00000200: 4b21 39bd 73ee db3d 067b 683d f4ac babd
00000210: c420 9fbd 6bba 0b3e a680 4c3e d3ac e93d
00000220: 7e5a 98bc 528f 0a3d 9525 3b3d 52ba 723d
00000230: 7b6a 3dbd 41ed 3abd 9b6b 9c3d 8551 b0bd
00000240: 0f44 64bc f80c d53d 29ce 04bc 5444 993d
00000250: efb1 06bc 281b b93d 0a97 8b3c 564b 783b
00000260: 82d8 083e 2ec6 2abc c4cd fe3c 4f04 703d
00000270: d39a 763d 2427 b13d b36b 9a3d 2420 2b3a
00000280: b249 b8bc 98fc 953d c84d 403d 3ce2 d13d
00000290: 4d3b b3bc 4c11 52bc 15ae 16bc abe7 003e
000002a0: ee52 643d 954b 9cbd 2cf8 113d 89ea 943d
000002b0: 911e 81bd 93ec 14bd cceb 4abd aaad ca3d
000002c0: f993 abbc dade 483d ca26 e93a 2650 f9bc
000002d0: c7ac 863d 5851 4abd f275 8d3d 9ddb 383e
000002e0: 9934 9dbd 5683 70bc 76a7 9fbd 6af0 b9bc
000002f0: 0501 a73d 76a4 4a3d 1b74 013d d4ff ba3d
00000300: 3889 0fbd 080b 433e 9730 b4bd 6956 7bbd
00000310: d952 5abd 3fc4 93bd 4010 853d cea3 0c3c
00000320: 0965 ba3d b392 2f3d 6980 82bc 5716 87bd
00000330: 1442 2bbd 75d3 823d ee4d b0bc 8361 7c3d
00000340: d7b5 6b3d c06f 8cbb c633 ba3d 87cd ab3d
00000350: a5ec d13d b125 a43c a84b a3bd faf0 2a3d
00000360: 3098 f5ba 2247 973d 056f 39bd 7c4b 8fbd
00000370: 2279 efba 75fb a73d e01e ae3d a095 d63b
00000380: 7fe8 62bd cbb0 af3d 22c5 ac3d 9610 643d
00000390: a492 353d ea9e 83bd 0071 6a3c 1914 153d
000003a0: 5493 7dbd 561f 52bd 9f5c a8bd e338 823d
000003b0: 2d24 eb3c 76fc e5bc 32f2 a63d 29e7 91bd
000003c0: 04ce 30bd 4fd8 643d 4ad4 6dbd 9be1 b43d
000003d0: 208e 1abd a00f 173d 2fab 1fbd eeb8 4e3e
000003e0: e19c af3c b6c2 3ebc b528 dcbd fc2e a63d
000003f0: 1c53 213d 593b a0bd 61c2 d63d 5df2 913d
0.05107785 0.05702709 -0.022608103 0.048280504 -0.051094037 0.07502957 -0.09770532 -0.052998543
-0.017427517 0.029869473 -0.0083321985 0.07510562 0.038576055 -0.02523509 -0.05397426 0.06379405
0.073229566 0.0363012 0.015246434 -0.0064197094 -0.032282785 -0.057952315 -0.016198674 -0.06618311
0.019500148 -0.050024144 0.0726983 0.05343319 -0.006140394 0.03583464 -0.028250605 -0.021656256
-0.014717046 0.008278221 -0.007176519 0.05222355 0.03090024 0.017350905 -0.06815622 0.03749835
0.0145395 -0.06753692 -0.03628063 -0.025193254 -0.020907719 0.018646084 0.024869503 0.016155526
-0.044645645 -0.015326627 0.080513656 -0.018713208 -0.060054854 0.05937455 0.008390731 -0.025858222
0.006674733 0.059135057 -0.023172699 0.014715573 -0.053979717 0.020047512 -0.008920729 -0.08225197
0.03835299 -0.08664718 -0.0773543 -0.03440446 0.02964352 -0.023472091 0.011269415 0.00088127545
0.01192434 0.008277955 -0.07460099 0.05292966 0.022510147 -0.005544959 -0.021006005 0.070191875
-0.088123135 0.034903172 -0.016114293 -0.00028364122 -0.04407927 0.049945176 0.011527759 0.07374923
0.041620493 0.040869694 0.073823586 -0.07305885 0.049144775 0.06397758 0.047863994 -0.071144864
0.05781175 -0.03810707 -0.08980457 0.026756976 -0.037347756 -0.0059853084 -0.056728147 0.005265121
0.02910462 -0.06387377 -0.0058484934 0.0031476298 0.0550563 -0.01644207 0.030194698 -0.075988956
-0.015806986 0.026035208 -0.023570849 0.02416538 -0.09401405 0.043426987 0.051901203 -0.13802308
0.08469132 0.06507042 -0.08069711 -0.10376843 0.077431574 -0.061634723 0.059029996 0.0715123
-0.045197766 0.1073884 0.05675795 -0.091150194 -0.077699214 0.13645332 0.1997095 0.11409917
-0.018597838 0.033828087 0.045690138 0.05925972 -0.046244126 -0.04563642 0.076377116 -0.086092986
-0.013932242 0.10402864 -0.008105793 0.07483736 -0.008221134 0.09038383 0.017039794 0.00378867
0.13363841 -0.010423226 0.031103976 0.05859786 0.060206246 0.086500436 0.07540073 0.00065279217
-0.022496078 0.07323569 0.046949178 0.10248229 -0.021878863 -0.012821507 -0.009196778 0.12588374
0.05574315 -0.07631604 0.035637066 0.072712965 -0.06304658 -0.036358427 -0.04954128 0.09896405
-0.020944582 0.049040653 0.0017788049 -0.030433726 0.065759234 -0.04939398 0.06907262 0.18052526
-0.07676048 -0.01467975 -0.077956125 -0.022697646 0.08154491 0.04947325 0.031604867 0.091308266
-0.03504297 0.19047177 -0.0879833 -0.061361704 -0.053301666 -0.07215165 0.0649724 0.008583976
0.09101302 0.042864513 -0.015930371 -0.06596058 -0.041811064 0.063879885 -0.021521535 0.061616432
0.057546463 -0.0042857826 0.09091906 0.083888106 0.102502145 0.020037504 -0.07973415 0.04173372
-0.0018737372 0.073866144 -0.045271892 -0.069968194 -0.0018270353 0.082022585 0.08501983 0.0065485984
-0.055397507 0.085786425 0.084360376 0.05567988 0.0443293 -0.06426795 0.014309168 0.03639612
-0.06190808 -0.051299416 -0.08220791 0.063585065 0.028703773 -0.028074484 0.08151664 -0.071241684
-0.04316522 0.05587035 -0.058063783 0.08832093 -0.037733197 0.036880136 -0.038981613 0.20187733
0.02143711 -0.011643102 -0.10749952 0.0811443 0.0393859 -0.0782382 0.104862936 0.07126305

net.3.bias f4 [64]
00000000: d883 ccbd 4fb4 0f3e 9708 22bd 9f3d 743d
00000010: bfb2 ca3d 0ef7 403d ce75 b53d 44c3 5cbb
00000020: 5ed0 553d 32e7 063e ea5a c83d 88dd 343d
00000030: 9529 453d d81d 88bd ed26 5cbd 1154 103e
00000040: 084b b53d 0727 95bc 65b3 133c be93 7bbd
00000050: 2ca5 94bd ba17 acbd 3402 ce3d 24e9 95bd
00000060: 1d84 083e fa41 32bd ba01 653d 9832 8cbc
00000070: 4168 13bc 2fab 28bd 1ad1 d0bd e1c2 9d3c
00000080: d679 80bd 34e1 2abd cb14 143e b89c 883c
00000090: a74c 45bd 50e1 303d 295d 8bbd ee37 653a
000000a0: 1d95 8ebd 9d7b fa3c c41e cabd 5521 29ba
000000b0: 0777 1a3d caec 54bd 677b d2bb 2cad 623d
000000c0: 8d84 07bd b3ab ed3d 4ebb 67bc b55e 21bd
000000d0: f663 173c b4ae b3bd ef1c a1bb 2e1f 67bd
000000e0: fd83 9a3d e91a 923d 7d7b c5bb d037 7e3d
000000f0: a56c 943d f24e 75bd 9ca1 ea3d fb18 03bc
-0.09986085 0.14033626 -0.039558973 0.05962908 0.09897374 0.04711061 0.0886036 -0.0033685723
0.052200668 0.13174132 0.097829655 0.04415658 0.04813536 -0.06646317 -0.05374806 0.14094569
0.08852202 -0.018207086 0.009014939 -0.061420195 -0.072580665 -0.08402963 0.10059014 -0.07319859
0.13331647 -0.04351995 0.05590985 -0.017113969 -0.008997024 -0.04117888 -0.10196133 0.019257965
-0.06273238 -0.041718677 0.14461057 0.016676292 -0.048168804 0.043183625 -0.06804878 0.0008743991
-0.06962035 0.030576522 -0.09869149 -0.0006451805 0.03771117 -0.051983632 -0.006423402 0.05534093
-0.033085395 0.11605015 -0.014143778 -0.03939696 0.009240141 -0.08773556 -0.004916779 -0.05642622
0.07544706 0.07134039 -0.006026684 0.062064946 0.07247285 -0.05988974 0.11456606 -0.008001561

net.6.weight f4 [1, 64]
00000000: 586d 8d3c 1094 19be cf3e 643c 3e6e 87bd
00000010: d974 97bd bf17 a2bd 93b2 80bd 9f46 a13d
00000020: 2e08 953d 8004 5cbd c8d3 86bd da12 2cbc
00000030: 3126 963d 6713 123d b146 bc3d 1ae6 99bd
00000040: d85f c0bd de71 88bd 3290 c7bd 62b3 313d
00000050: 74c3 893d ef54 a9bd 83d9 f9bc ed66 0f3c
00000060: 115b 7cbd ce45 823c 5647 d13d 6d22 c8bd
00000070: 88fd 5f3d 63e1 50bd a551 2fbd cb98 ddbd
00000080: 384e 763d 6db3 d5bd 0285 eabc ca42 74bd
00000090: e47f 803d c819 753d 4016 c63c 71b0 073d
000000a0: 49cd d73d fb0d 03be 6069 633d f31a 08bd
000000b0: 4bac d0bb aec9 ad3d 1b42 ef3c 4698 cc3d
000000c0: 58f1 1d3d cd7f 963d d309 69bb b0ef bf3d
000000d0: 3728 eebd f125 9e3d 7bda 2d3c 1485 ee3d
000000e0: a90c 5a3d 513f d3bd 6890 2a3e 5bf3 bcbd
000000f0: b3b3 03be c82c 14bd 8b49 b5bd 3ec6 303d
0.017264053 -0.14997888 0.01393099 -0.06612824 -0.07395334 -0.079146855 -0.0628406 0.07874798
0.07276951 -0.05371523 -0.06583363 -0.010502541 0.07331503 0.035663035 0.09193171 -0.075145915
-0.09393281 -0.066623434 -0.097443 0.043383963 0.06726733 -0.08268153 -0.030499225 0.008752567
-0.061610285 0.015902426 0.102186844 -0.09772191 0.054685146 -0.050996196 -0.04280247 -0.108201586
0.06013319 -0.104346134 -0.028627876 -0.059634008 0.06274393 0.05983904 0.024180532 0.033127252
0.10537202 -0.12798302 0.055520415 -0.033228826 -0.006368195 0.08485733 0.029206326 0.09989981
0.03856024 0.07348595 -0.0035558834 0.09371889 -0.11628764 0.077220805 0.010611172 0.116464764
0.05323473 -0.10314811 0.16656649 -0.09226104 -0.12861519 -0.03617552 -0.08851918 0.04315781
