logs/binary_classifier/version_0/checkpoints/best-model-epoch=01-val_loss=0.647.ckpt (torch, 198418 bytes, 15 tensors)

net.0.weight f4 [128, 56]
00000000: 9875 303e f6e5 b83d 18e9 1e3e 65ab 9c3d
00000010: d0a0 8d3d 7627 143d d4a7 1dbe 873d 4d3d
00000020: 877a f63c 3842 b63c 56cf aabd 678d c6bb
00000030: ff9a c83d 907b e13b 9d88 823d 757c 173e
00000040: 9269 cdbd 068e 2fbe 9f59 ffbd 7833 9ebd
00000050: b49b bbbd daec c13c 561e 293c 3113 363a
00000060: f5eb c83d 852f 4cbd 06f7 b13d 69e5 93bc
00000070: 4c4d 803d 2d2c a2bd 32aa 22be fd65 a33d
00000080: b763 b93d 928c da3d 14a2 a0bd d217 223d
00000090: 9698 10bc 1bda a4bc 5f1f b83d 3424 8a3d
000000a0: f7a1 81bd 959d 04be 87dc d1bd 2c63 38be
000000b0: 2afa 2cbe 27f7 ae3c acef ecbb e04d 14be
000000c0: e3de 703c 8430 42be 711d 36bd 1116 8bbd
000000d0: 72c3 89bd 4e44 873d 863a 99bd e9fa a3bd
000000e0: 3f17 2b3c 939e 7e3d f8fb d23b e631 993d
000000f0: 1e04 dd3d ed65 abbd a2e1 393d db53 4a3d
00000100: 8380 233d 606b debd 708e 273d 5465 bdbc
00000110: bcda cfbd eac0 30be 2d86 86bb 0d2a e5bd
00000120: aa49 1abd 492c 92bd 4f21 febd 597e 003d
00000130: 2550 90bd 5080 993d f9fa 063e 976a e4bd
00000140: 24ad 253d 134f 1bbd afac ad3d 1fd7 d3bd
00000150: 5ac6 293c ebff 88bc c335 2cbe 3558 95bd
00000160: 8c58 7ebd 9a0e ce3d 2aea a2bb 1c0d 9fbd
00000170: 4597 e03d d484 bb3d 0027 bcbd d849 0ebe
00000180: e501 3a3d 2feb 09be c790 c63b 212d 6abd
00000190: ef31 27be 289c f3bc c655 8cbc fcaf 0abd
000001a0: 2771 4abc 1fa5 cfbd bbae 24bc 1f75 1ebe
000001b0: da4b 233c 63ed 5dbd 2977 163d 3509 4b3c
000001c0: 45a6 c1bc 107a 773d 504f fabd 889c ff3d
000001d0: 608a 41bd 5496 223d 8a4a 413d f2db 223c
000001e0: 4a57 f4bd a045 abbd dc15 c1bd bc6c 013c
000001f0: 1e4f 313b 8050 c9bd 4839 1a3c 7dde 3ebd
00000200: 9c6c 643b 154e b9bd 8239 b83d 0088 1d3d
00000210: 9e23 6fbd 4893 143e 1a06 c03d 729d 8cbd
00000220: 76b7 c03d f2bd a13d ea23 763d 2447 9abc
00000230: ef49 263d bd99 69bd 731d c0bd 02ef 3dbc
00000240: 3c34 c93d c223 f0bd 8959 1bbe ceef 673c
00000250: 11f6 9ebc f723 af3d 31d7 93bd c7a9 8ebd
00000260: 30ea b4bd 2cd4 d63d 34f7 0bbc 49da 05bd
00000270: 3123 983c 16c7 b8bd 007a f03d 0887 a3bd
00000280: 6e4f b23d 855a b23d a95d 013d 2563 b7bd
00000290: f51c 633c 56f1 2abd 53fe a4bd 3a8a 29bd
000002a0: 3b23 313b 80c2 5d3c 9293 213d cb22 4fbe
000002b0: d02c d53c 391b 713d ef22 e63d 58ae d13d
000002c0: aae9 e9bd a067 953c 40ed 2ebd f401 313b
000002d0: a0d2 45bd 3391 3d3d dc68 09bd eaa4 1e3d
000002e0: 07f7 94bc 15ad 64bd 9916 90bd 0272 ff3b
000002f0: c144 183e 179a 213a 7fa4 e4bd 6989 48bc
00000300: 3fb3 c03c b395 e53d c4d7 93bd d7a2 693d
00000310: 33b3 7c3d 1a3f d73c a657 123d cc73 06bd
00000320: 2741 633c 5eeb 263c 8d9b 0cbe 60c8 73bd
00000330: e1f8 9d3d 4f37 bb3d 47af b53d 9f94 b0bc
00000340: 6080 9fbd ba34 1cbc 5cca ec3d bbfb 033d
00000350: 53a4 313e 50af d4bc 02e6 973d 9afc 173e
00000360: bb33 1d3d c7df 93bc 7282 b43d b4fc 3fbd
00000370: 22d0 0ebd 1895 91bb 06a2 76bd 29b0 c0bd
00000380: e8da 5e3d e581 62bd 9aaf 993c 817b f0bd
00000390: 6037 ab3d e8df db3d cdb2 1a3d 03ad c0bc
000003a0: 8728 79be acac 3d3b cd15 7e3d 6cf7 d1bd
000003b0: 8ca3 2bbe c14c 173e 5f52 093e f277 07be
000003c0: f4f4 c8bd 1d95 85bd 3821 9d3d 95be be3c
000003d0: daa5 053e 3645 003d 0514 e0bd e9ee b2bd
000003e0: ee6a 983d 9635 dbbd f6d2 ffbd 6e77 a33d
000003f0: eb99 81bd 9252 b13d 6668 a8bb 4b49 0d3e
0.17232358 0.090282366 0.15518606 0.076498784 0.06915438 0.036170445 -0.15396053 0.050107505
0.030087722 0.022248372 -0.083403274 -0.006059337 0.09795188 0.006881185 0.06373713 0.1479357
-0.100299016 -0.17144021 -0.12468266 -0.07724661 -0.091605574 0.02367251 0.010322174 0.0006945609
0.0981063 -0.049850006 0.08689694 -0.018053727 0.06264743 -0.07918582 -0.15885237 0.07978437
0.09052222 0.10671343 -0.07843414 0.039573498 -0.008825442 -0.020123532 0.089903586 0.067451864
-0.063297205 -0.12950738 -0.102471404 -0.18006581 -0.16892305 0.021358086 -0.0072307196 -0.14482832
0.014701578 -0.1896382 -0.04446167 -0.06791318 -0.06726731 0.06604825 -0.074818656 -0.08006842
0.010442554 0.062162947 0.0064387284 0.074802205 0.10791801 -0.0836905 0.045381196 0.049396377
0.03991748 -0.10860324 0.040907323 -0.023119606 -0.10149142 -0.17261091 -0.0041053505 -0.11189661
-0.037667908 -0.07137353 -0.12408697 0.031370495 -0.07046536 0.07495177 0.13181676 -0.11153143
0.040448323 -0.037917208 0.084802024 -0.103437655 0.010362232 -0.016723594 -0.16817383 -0.07292215
-0.062096164 0.10061379 -0.004971762 -0.07766172 0.109663524 0.09156194 -0.09187126 -0.13895357
0.045411963 -0.13468622 0.0060597393 -0.057171945 -0.16327642 -0.029737547 -0.017130744 -0.033859238
-0.012356079 -0.10138916 -0.010051425 -0.15474366 0.009966815 -0.054181468 0.036734734 0.012392332
-0.023638854 0.060419142 -0.12222159 0.12481028 -0.047251105 0.039694145 0.047190227 0.009940134
-0.119307116 -0.08362889 -0.094279975 0.007899459 0.0027055214 -0.09829807 0.009413071 -0.0465989
0.0034854775 -0.09048096 0.08995344 0.038459778 -0.058383577 0.14509308 0.09376164 -0.06865968
0.094099924 0.07897557 0.060092844 -0.01883275 0.040597852 -0.057031382 -0.09380617 -0.011592628
0.09824416 -0.1172557 -0.15170874 0.014156295 -0.019404443 0.085517816 -0.07218779 -0.06965976
-0.0883373 0.10489687 -0.008542825 -0.032678876 0.018571468 -0.09022348 0.1174202 -0.079847395
0.08706556 0.087086715 0.031583462 -0.08954457 0.013861884 -0.041734062 -0.08056321 -0.04139159
0.0027029056 0.013535142 0.039447375 -0.20228116 0.026022345 0.058863852 0.11237132 0.102383316
-0.11421521 0.018237889 -0.042706728 0.002700922 -0.04829657 0.04628105 -0.033547267 0.038731493
-0.018184198 -0.055829126 -0.0703556 0.007795573 0.14869978 0.0006164624 -0.11164188 -0.012239792
0.023522971 0.112101935 -0.072188884 0.05704006 0.061694335 0.026275206 0.03572812 -0.032825276
0.013870514 0.010187952 -0.13731213 -0.059517264 0.077134855 0.09141409 0.08871322 -0.021555243
-0.077881575 -0.009534055 0.115620345 0.03222249 0.17347841 -0.025962502 0.074169174 0.14842454
0.038379412 -0.018051041 0.08813943 -0.046871856 -0.03486646 -0.004442822 -0.06021311 -0.094086
0.054407984 -0.05529966 0.018760491 -0.117423065 0.08360171 0.10736066 0.037768174 -0.023519998
-0.24331866 0.0028942032 0.06203251 -0.1025227 -0.16761607 0.14775373 0.13410328 -0.1322935
-0.09812346 -0.06522582 0.076723516 0.023284236 0.13051549 0.031316005 -0.109413184 -0.08736975
0.0744227 -0.1070358 -0.124914095 0.07981764 -0.06328186 0.08658327 -0.0051393984 0.1379749

net.0.bias f4 [128]
00000000: fbb4 1a3c 3771 1f3d b76b c93d f1c2 b43d
00000010: e108 ad3d 3c79 85bd a1ba a23d 1a97 12be
00000020: 8c8f 1cbe 8187 a13c 5d02 c03d 42dc 2bbd
00000030: cd81 d8bd 4c8c 4e3a fc88 cc3d ab73 be3d
00000040: 00ce 053e d33b a6bc 5f18 e13d f75e 163d
00000050: eca7 183c e116 6dbd 8bee cf3d 8773 023e
00000060: 03aa f23c 8fc2 98bb f9f3 0fbd a34f e43d
00000070: f4f8 5fbd a65e 683d 67b6 903d 5199 fb3d
00000080: 8b27 813b 02ce 07bd 878a 4d3d b5cc 853d
00000090: 7a1d 3a3e e1a0 b4bd fdd4 383d f184 123e
000000a0: 065f 923d c2a4 943b 86a3 693e 17b6 1f3e
000000b0: 495a afbc 1911 e2bd 59f1 53bd 5765 1a3e
000000c0: 0d9e e43b 9e87 33bc 6754 893d acbd 3cbd
000000d0: 78b9 3b3e 7217 083e 80a2 f63d d330 3fbe
000000e0: 4705 ccbd 06fe df3b 129b 183d a558 dcbd
000000f0: 46f6 b4bd c157 d33d a10a e03c 3553 f4bd
00000100: f368 373d be0a 813c 5378 a43c f2b2 fabc
00000110: 88a0 ad3d 1bf7 953d a14e d33c 104e c43c
00000120: f61c ce3d 5fa2 01be 8a39 4dbd 1ff2 e9bd
00000130: bd42 393e 844e a1bc 7ddc c9bd fbae 313d
00000140: b83b 5abd 2cd4 a2bd c10a d1bd 6dde 653c
00000150: f4a1 81bd 30cc 4abd b9ca 9abd 6825 c13d
00000160: 579d 2d3e a97a 993d 930e 3a3e 5b3f 003e
00000170: 3ab0 cb3d 4fd7 de3c a718 84bd eee1 0a3e
00000180: b0f6 a8bd a73c fd3d 0658 08be a239 9e3d
00000190: 80ab 02bd 6fcd dcbd 024c 93bd 4e18 1e3d
000001a0: 6a67 0a3c cee7 d63d 5f7d 263b 2150 3fbd
000001b0: ea07 7d3d 9874 8fbc ffb4 bdbd 5641 9c3b
000001c0: bc04 073e 29a9 d4bd 804e 4cbe 786b 0b3e
000001d0: e258 18bb dd7d 4cbd fc2a 313d 854a a93d
000001e0: 6b50 b9bd 5580 d9b8 1bc0 473e 937a 543d
000001f0: a0d8 333e 8340 513d 3aae e6bd 5b74 e3bc
0.009442563 0.03892633 0.09834998 0.088262446 0.08448959 -0.06517264 0.07945753 -0.14315453
-0.15289134 0.019717934 0.09375451 -0.0419581 -0.105716325 0.0007879182 0.09987065 0.09299406
0.13066864 -0.020292198 0.109909765 0.03671166 0.009317379 -0.057883147 0.1015292 0.12739383
0.029622084 -0.004661865 -0.03514478 0.11148002 -0.05468078 0.05673089 0.070660405 0.12285102
0.0039414815 -0.03315545 0.050180938 0.065331854 0.18175307 -0.08819748 0.045124996 0.14308526
0.071470305 0.004536242 0.22816285 0.15596806 -0.021405356 -0.11038417 -0.05174384 0.1507772
0.006976849 -0.010957627 0.067055516 -0.046079323 0.1833247 0.13290194 0.12042713 -0.18670969
-0.09961944 0.006835702 0.03725726 -0.10759095 -0.088360354 0.10319472 0.027348818 -0.11929933
0.04477782 0.015752193 0.020076906 -0.030602906 0.084778845 0.07322522 0.02579433 0.023963004
0.100641176 -0.12659596 -0.0501037 -0.11423134 0.18091865 -0.01969076 -0.09856508 0.043379765
-0.05327961 -0.07950625 -0.10207129 0.014030081 -0.06329718 -0.049511135 -0.075581975 0.09430963
0.16954552 0.07494099 0.18169622 0.12524168 0.09945722 0.027202277 -0.064500146 0.13562748
-0.08250177 0.12365084 -0.13314828 0.07725836 -0.031901836 -0.10781371 -0.07192232 0.038597398
0.008447507 0.10493432 0.0025404317 -0.046707276 0.061775126 -0.01751165 -0.09263038 0.004768531
0.131854 -0.10383827 -0.1995182 0.13615215 -0.0023246338 -0.04992472 0.043253884 0.082661666
-0.09048542 -0.0001037127 0.19506876 0.05187471 0.17563105 0.051086914 -0.112637 -0.027765444

net.3.weight f4 [64, 128]
00000000: 0c48 243b d261 7fbd 5c46 6b3d 50f5 aabd
00000010: 946b 993c 7a12 dc3c 3a9a 713d 41d1 0bbd
00000020: c0d5 5b3d 78fb 593d f65b 683c 0bc2 9a3d
00000030: 2bca 7dbd 9592 1f3d 05c0 d13c ddad 63bd
00000040: ab4e 133e bf21 05bc a80f f43d 07cf bdbd
00000050: 74c3 f3bc 059e 653c c881 8ebd 8ccf 023d
00000060: 1cb2 423d 5437 923b 9298 62bd a02c 6a3b
00000070: ce6c 413d f769 9fbd e55e 87bd 8f6a 92bd
00000080: c260 2f3d fe7f 653d 9c99 953d 52dd 64bd
00000090: 31a1 833e 62f9 40bd 1731 c1bc 4d18 4bbd
000000a0: 6fca 473d a2c0 6bbc d6b1 023d 13dc b2ba
000000b0: be89 e23d c06e 0abd 27a9 b73c 2346 99bd
000000c0: abf6 a4bd f566 55bc ed80 703d 0524 65bc
000000d0: 4cc1 d23d 9330 bc3b 40e1 de3c 643b 743d
000000e0: 8006 503c 6227 8b3d 724d 95bd d51e c23d
000000f0: 2f4c ebbc dbf5 16bd 684b 893c 39e9 6e3c
00000100: 0e26 bc3c c2fb ba3d 9bfb 88bd 9efd a33b
00000110: 8ce8 8d3d 5abb 97bd 26d8 15be b779 f13c
00000120: 2eca 2b3d 17f9 9abd f9fc e6bc 3bda 8ebd
00000130: eb2e 373d 80f6 603d 11a6 9abd 5af8 27bd
00000140: 2f2a 93bd c223 18bc 9b7c 913d 312b 2abc
00000150: a6f5 ae3d 3e28 30bd 54f2 073d 2b24 ed3c
00000160: 1a03 a6bc 518f dc3c 5994 2c3d dd15 183c
00000170: 93fe b2bc c047 4b3d 5814 1f3d 061a 913d
00000180: 5da4 cf3d e0a3 1d3c 317f a43c 256f 0e3c
00000190: 916f 823d f609 91bd 0ed0 993c 689d d13d
000001a0: b499 3e3d d1f6 2f3d b977 47bb f9cb 813d
000001b0: a01e 9b3c 321e a43c ce93 273d ea48 2abd
000001c0: 15f7 3fbd d624 83bd 30d7 8bbd d675 62bc
000001d0: f91d 6cbd 4f6c 47bb 0632 303d adc7 e33b
000001e0: 7abb 7f3c 3620 ed3c 08e5 4d3d a45f cabc
000001f0: 2818 f83c bd68 023d 3601 48bc d031 52bd
00000200: c46e 83bc 047c 8abd 5485 cbbc 731e 563d
00000210: 95b2 833d 2bc2 c4bd 58fa a7bc 526f 15bd
00000220: 90b7 283d e5a2 64bd 4286 fcba 5555 2c3e
00000230: 8f0d 7abd e2ea 533d f2b7 85bd ac53 b83c
00000240: f9b5 c23d 0faf e93d d918 f03d 1a5a 2e3c
00000250: 217e e3bc 3c0a 81bc 8c14 573d 97a3 4f3e
00000260: 72c1 2cbd 0448 823d 3dd0 6f3d acf2 ad3d
00000270: 2ee8 153d e145 ea3a 1ebb edba 80d1 8a3d
00000280: 68e7 91bd 2317 363d 3182 fabb 8849 873d
00000290: fe80 1b3e ca7c 463d ae73 573d d130 293d
000002a0: 985a 2ebd 1b7b f7bd 6470 cb3d e6b2 26bd
000002b0: 77bc 923b 480b 43bc 0a4d bf3c 13b1 edbc
000002c0: e0af 8d3d 300d 333d 7b30 463d 295d a3bd
000002d0: a205 da3d 5145 eb3b 0178 f73d c6cf 823d
000002e0: 6681 473d 3669 9f3c 857f 97ba 3546 a9bd
000002f0: 79e1 acbd 0ae1 5a3d a8fd 723d 1407 2abd
00000300: 1565 533d 6fac 80bb bd43 63bd a4b3 053e
00000310: 088a a4bc 5c84 033c 8ccf a6bd 11d5 b9ba
00000320: 5a17 733c c190 62bd 8f95 713d 45a9 13bd
00000330: aacc 8a3d 4fc5 0dbd a387 a9bc f183 853d
00000340: 2fce 32bd b54b 27bb a155 1f3d f114 063d
00000350: 8a6d 923c b062 b3bd 3637 353b a698 a63b
00000360: b319 61bd d13a 40bb e768 ea3c 6e51 873c
00000370: f2b8 c03d 483c 88bd 62a2 d73c 08c5 f5bc
00000380: 5177 493d 767c 4c3d 6b57 bdbd 8d67 94bd
00000390: aa88 d93c ab90 373d 545c a9bd d05a 183e
000003a0: e9f0 4cbc 7454 2c3d 7d7f 12bd 481e 98bd
000003b0: 0471 b6ba 89b5 223d c4a7 d0bc abeb 133d
000003c0: dd99 20bd 7ec1 563d cfa2 1f3d ab2c f3bc
000003d0: f1fb 3cbd f897 34bd 7b79 9fbd 94bc 05bd
000003e0: 82f5 3cbd 525b dbbd fc0f c53d f036 b6bd
000003f0: 3d15 ce3d e96e 9cbd 83a6 efbc aad4 463d
0.0025067357 -0.062349148 0.057440147 -0.08347571 0.018728055 0.026864279 0.058984973 -0.034135107
0.053670645 0.053218335 0.014182081 0.07556542 -0.06196038 0.03895815 0.025604257 -0.05558573
0.14385478 -0.0081257215 0.11917049 -0.09268003 -0.029756285 0.014014726 -0.069583476 0.031936213
0.04753314 0.004462162 -0.055321284 0.0035732165 0.047222905 -0.07783883 -0.066098966 -0.07149231
0.042816885 0.056030266 0.07304689 -0.05587513 0.25708917 -0.04711283 -0.023582978 -0.049583722
0.04877704 -0.014389189 0.03190788 -0.001364591 0.110614285 -0.033797026 0.022419525 -0.07484081
-0.08054861 -0.013025035 0.058716703 -0.0139856385 0.10290775 0.005743095 0.027207017 0.05962695
0.012696862 0.06794621 -0.07290162 0.09478537 -0.02872285 -0.03685556 0.01675959 0.014581972
0.022967365 0.0913005 -0.06688615 0.0050045988 0.069291204 -0.07408781 -0.14633235 0.029476983
0.04194086 -0.07567041 -0.028196799 -0.06975218 0.04472248 0.05492258 -0.07551206 -0.04100833
-0.0718578 -0.009285869 0.07103845 -0.010386274 0.085429475 -0.043007128 0.033190086 0.02894791
-0.02026515 0.026923807 0.042133663 0.009282556 -0.021849906 0.049628973 0.03883776 0.07085042
0.10138772 0.00962159 0.02008018 0.008693491 0.06368936 -0.07081978 0.018775966 0.10235101
0.0465333 0.04295999 -0.003043635 0.06337733 0.018935502 0.02003393 0.040912442 -0.041573443
-0.046866495 -0.0640351 -0.06828153 -0.01382204 -0.05764577 -0.0030429547 0.043016456 0.0069512934
0.015608663 0.028946023 0.05026725 -0.024703808 0.030284956 0.031838167 -0.01220732 -0.051317036
-0.016044028 -0.06761935 -0.02484385 0.052275132 0.06430546 -0.09607347 -0.020505115 -0.036483116
0.041190684 -0.05581941 -0.0019266086 0.16829427 -0.061048087 0.051737674 -0.065292254 0.022500835
0.09507365 0.11410343 0.11723489 0.010641599 -0.027770104 -0.01575195 0.05250983 0.20277248
-0.04217667 0.06361392 0.0585482 0.084935516 0.036598377 0.0017873609 -0.001813743 0.0677824
-0.07124215 0.04445566 -0.0076449146 0.06605822 0.15185925 0.048458852 0.052600555 0.04130632
-0.042566866 -0.120840274 0.09933546 -0.040697955 0.004478033 -0.011904545 0.023352165 -0.0290151
0.06918311 0.04371375 0.04838608 -0.07976753 0.106456056 0.007179894 0.12083436 0.06387286
0.04870739 0.019459348 -0.001155839 -0.08265344 -0.08441443 0.05343727 0.059323937 -0.041510656
0.05161007 -0.0039268057 -0.055484522 0.13056809 -0.02008535 0.008027162 -0.08145055 -0.0014177879
0.01483711 -0.05531383 0.05898052 -0.0360501 0.06777318 -0.034611996 -0.02069456 0.065193065
-0.043653663 -0.0025527303 0.03890002 0.032734815 0.017874498 -0.087590575 0.0027651316 0.005084115
-0.05495615 -0.0029331932 0.028614474 0.01651832 0.094102755 -0.06652123 0.026322547 -0.030001178
0.049186055 0.049923383 -0.09245189 -0.07246313 0.026554424 0.0448157 -0.08269563 0.14878392
-0.012508609 0.04207273 -0.035766114 -0.07427651 -0.0013919179 0.039723907 -0.025470622 0.036113422
-0.039209235 0.052430622 0.038973626 -0.029684385 -0.046138708 -0.04409024 -0.077868424 -0.032650545
-0.046132572 -0.10710777 0.096221894 -0.08897197 0.10062645 -0.07638342 -0.029254204 0.048542656

net.3.bias f4 [64]
00000000: 774e 973d c1d4 013e cbbc e7bc 656b 04be
00000010: 1966 81bd 2fb1 99bd d02b b83c 9fcc 943d
00000020: d739 6c3c 6fd7 453b 12ee 033e bcc2 183e
00000030: aa0c f43d a1c8 103e ef43 a23c 31df b7bc
00000040: 8b72 a23c 5ca3 6fbd ac01 ee3d 45f8 823d
00000050: 53b4 84bd 9133 1b3e bb89 f23b 61be 87bd
00000060: a94d 413d 4d8a acbd bcf3 5a3d 47c0 603d
00000070: 1047 d6bc 685e d7bd 796a 193d 3401 f83c
00000080: 8394 3cbd 1d4e 2bbd 8160 07bc 67bc f3bc
00000090: 7c9d 7abd c78e b9bc 7750 5fbd 1604 523d
000000a0: b287 313d 467f 153e 5253 823d 7fdd 043e
000000b0: bcd9 da3d 8b67 023c d8b4 523c a018 a9bd
000000c0: 69b9 153e 4bc7 99bd 0dea dfbc b88c ce3c
000000d0: 6c61 453d 6f11 7c3d 0546 e1bc 7535 4ebc
000000e0: a4ec 993d 59dc e33d a40d 733d 9667 8fbc
000000f0: 0a4a 1a3d 587f 933d 2a3d d13d 2568 b6bb
0.07388013 0.12678815 -0.028288266 -0.12931593 -0.06318302 -0.07504498 0.022481829 0.07265591
0.014418087 0.0030188223 0.12883785 0.14918035 0.11916478 0.14139034 0.019807784 -0.022445293
0.019830009 -0.0585054 0.11621413 0.0639501 -0.064797066 0.1515639 0.0074016727 -0.06628109
0.047193203 -0.08424816 0.0534551 0.05487087 -0.026156932 -0.105160534 0.037455056 0.030274011
-0.04604007 -0.04182254 -0.008262754 -0.029752923 -0.061185345 -0.02265109 -0.054520097 0.051273428
0.0433423 0.14599332 0.06363548 0.12975119 0.10686061 0.007959257 0.012860499 -0.0825665
0.1462151 -0.07508715 -0.027333284 0.025213584 0.048188612 0.061540063 -0.027499208 -0.012585987
0.07515839 0.11126012 0.05933918 -0.017505448 0.037668265 0.07202023 0.10216744 -0.005566614

net.6.weight f4 [1, 64]
00000000: 552c a0bd ecff d2bd 188b 8dbc 9c03 bf3d
00000010: 3dd9 893d ebb9 47bd c6c2 633d 3666 f73d
00000020: 1998 f4bd 3e85 353d 22bd 07be 8273 c4bc
00000030: ee8f d53d 537d 42bd 76d7 a53c 5945 f13c
00000040: f81b a83d f0f5 b33d 93ab 89bc c40d 00be
00000050: 1183 403d aefc febd 0ba7 31bd 9c70 463c
00000060: 6a03 ddbd dbe8 9dbc c865 8bbd 9afe c1bd
00000070: 036a a83c 939c ec3c 8e65 80bd 34b7 003d
00000080: e58e 25bd f65e f13d baaa 18be d640 683d
00000090: cba8 293d 3860 98bc 195f 933c ee63 373d
000000a0: bc5a 6a3d d02e 84bd 284b ad3c 3a1f eebd
000000b0: fbec 56bd da69 c53d b55a 26bd 9730 e139
000000c0: d0d1 e6bd 8fd0 ca3d b3a4 7e3d 257c 6a3d
000000d0: 94f6 ddbd 6726 62bc a8d6 9e3d cb86 54bd
000000e0: 6d05 713c 290b e8bc 0417 48bd 9d4e 96bd
000000f0: fffa 933d ab6b 1abd bdfd 2abd 3f1d 093c
-0.07820956 -0.103027195 -0.01727824 0.0932686 0.06730888 -0.04876129 0.055605672 0.12080042
-0.11943073 0.044316523 -0.13255742 -0.02398086 0.10427843 -0.0474828 0.020244341 0.029452013
0.082084596 0.08787143 -0.016805446 -0.12505251 0.046999995 -0.124505386 -0.043372195 0.012111809
-0.10791667 -0.019276073 -0.068065226 -0.094723895 0.020558363 0.028883254 -0.0626937 0.031424716
-0.040419478 0.117856905 -0.14908877 0.056702457 0.04142074 -0.018600568 0.017989682 0.044773035
0.057215437 -0.06454241 0.021154001 -0.1162705 -0.052472096 0.0963933 -0.04061385 0.00042951546
-0.11270487 0.09903061 0.06216879 0.0572473 -0.10838047 -0.013803101 0.07755786 -0.05188636
0.014710766 -0.028325634 -0.048850074 -0.07339213 0.07225608 -0.037700336 -0.04174589 0.008368789

exp_avg f4 [128, 56]
00000000: d68f 9ab9 2193 a1bc 32e3 1438 4f6b 30b9
00000010: 0000 0000 aae2 e838 c29d f838 6978 d138
00000020: 1671 9eb8 61b4 04b9 a00d 8838 b2da f6b8
00000030: 9933 f5b7 6a8c bdb8 ea9b cb37 ca7e ef37
00000040: 9b8c 4d37 8aad b638 93aa 8338 0767 3939
00000050: c453 08b9 f7dd bf36 d4c5 6fb7 ee62 2239
00000060: a53e 5936 a00d 8838 b2da f6b8 3a75 1934
00000070: 447d 05b9 9933 f5b7 1f9b 8337 3824 f634
00000080: d48b e236 1a74 b037 ca7e ef37 a375 4337
00000090: 4747 27b7 4a07 7837 cccf 5937 76fa bc38
000000a0: 4e72 e837 93e6 2939 93aa 8338 3fdc 1a38
000000b0: c453 08b9 d4c5 6fb7 ee62 2239 6598 53b8
000000c0: 1ce2 5238 5ef3 3239 8fef 69b9 5c2e 8339
000000d0: 723a 75b7 7d09 4a37 62ad e7b7 9ceb 9437
000000e0: 81b8 ea37 71aa f33c 9d49 0d38 e6c5 ff37
000000f0: 0000 0000 c315 b037 eeb7 7337 6847 3d38
00000100: e7fa 5437 5b6b 28b6 2e44 c338 99b3 5b38
00000110: 5806 d337 da94 9b36 03bb a2b7 3391 9ab6
00000120: e297 eb36 66de 02b9 0d29 e336 4f97 3f37
00000130: 4b78 4ab6 2c7e c337 1248 50b7 48fc c136
00000140: 2a2b e8b7 2e44 c338 99b3 5b38 b026 bab3
00000150: 8af5 6cb7 5806 d337 c1f7 8f37 d85c cd36
00000160: c359 18b8 4ce0 0a37 3391 9ab6 9c8e 8435
00000170: a319 ce36 a144 2138 3672 88b7 dd21 1db8
00000180: 7ab9 9db6 98bd e2b7 0d29 e336 fb5f 9d37
00000190: 4b78 4ab6 1248 50b7 48fc c136 541b fcb7
000001a0: 8938 12b8 9706 15b8 b8dc 9737 c5e4 ab38
000001b0: eb5d 11b7 b952 e8b7 98bc 8438 d769 1237
000001c0: 06e8 52b9 583f 4f3c 321d 9e38 5827 48b9
000001d0: 0000 0000 925b dd37 5250 0538 1661 fe36
000001e0: 8f8c 4d38 c00a 2cb7 cab5 33b8 8b7b 91b5
000001f0: 6166 01b8 2360 32b5 07e0 cdb7 7131 2a37
00000200: 9e24 7137 d70d 8838 cfab b734 dbea 5bb7
00000210: ad83 62b8 b091 e0b7 710d a737 3397 f238
00000220: 0128 e1b7 cab5 33b8 8b7b 91b5 6c13 a534
00000230: 28f5 b0b7 6166 01b8 35da 8d35 ebce 45b4
00000240: 2532 ed36 ee3f 1a36 7131 2a37 3e13 6f37
00000250: 556f e9b7 7efb 11b8 fe0c 5337 03c7 a138
00000260: 5ede 9ab6 8f01 b637 cfab b734 2762 ab37
00000270: ad83 62b8 710d a737 3397 f238 2800 e5b7
00000280: 9b07 a937 a031 ab36 3c9c c3b8 d06a d538
00000290: 694b a637 61fb ae37 adcd 32b8 45fe b7b4
000002a0: 4573 423a 5283 a63c 36a7 c439 d917 8d3a
000002b0: 0000 0000 5726 9e39 3911 9f39 ca8c 9e39
000002c0: 7f03 9a38 dd78 afb9 5e4b eb37 8cd0 0e39
000002d0: 150d 0c38 cf4e 2e39 8e6a 7f39 a4d0 bbb8
000002e0: e424 03b9 5b47 9739 18a1 d0b8 d25e 12b8
000002f0: b122 0039 a1b7 a0b8 ab19 a5b7 6d27 cf38
00000300: 352f 6b39 5e4b eb37 8cd0 0e39 fc22 78b6
00000310: 2406 3d39 150d 0c38 b266 f5b8 4d58 09b8
00000320: 2299 0139 b5da a137 a4d0 bbb8 89dc b9b8
00000330: 245e 2938 a1fc 70b7 b2a8 0538 e5ba 86b9
00000340: 0fd6 2838 533f acb7 18a1 d0b8 5575 6bb7
00000350: b122 0039 ab19 a5b7 6d27 cf38 d465 b739
00000360: 330a c4b8 87f9 38b7 181d eb39 6b40 9139
00000370: 15a4 17b8 0cfc ba37 dfb8 7b38 0e85 9736
00000380: 9d4c 97b8 fa01 ba3a f71c 5537 f124 0638
00000390: 0000 0000 c57b 4db9 d007 23b9 11d8 73b9
000003a0: 92cd 5a39 085f dab8 c96a 43b9 a10e b2b6
000003b0: 36b1 fd38 5392 8eb9 4a8e ae39 256c 0cb9
000003c0: e727 a4af f194 83b9 81ed 3e37 d0c3 eab7
000003d0: 34d7 b339 b0e5 82b9 cb01 3534 9de7 20b9
000003e0: 5027 f538 c96a 43b9 a10e b2b6 0000 0000
000003f0: 1c90 d837 36b1 fd38 54e7 82b9 a7b3 b8af
-0.00029480335 -0.019723477 3.5497542e-05 -0.00016824644 0.0 0.000111048415 0.00011854946 9.988325e-05
-7.555091e-05 -0.00012655697 6.487523e-05 -0.00011770929 -2.9230303e-05 -9.0383764e-05 2.4272089e-05 2.8550061e-05
1.2251689e-05 8.7107604e-05 6.278339e-05 0.00017681356 -0.00013001176 5.7180837e-06 -1.4291571e-05 0.00015486378
3.2371984e-06 6.487523e-05 -0.00011770929 1.4291882e-07 -0.00012730533 -2.9230303e-05 1.568865e-05 4.5847423e-07
6.751603e-06 2.1034899e-05 2.8550061e-05 1.1650295e-05 -9.970571e-06 1.4783649e-05 1.2982589e-05 9.0111906e-05
2.7709782e-05 0.00016202992 6.278339e-05 3.692158e-05 -0.00013001176 -1.4291571e-05 0.00015486378 -5.044825e-05
5.0278482e-05 0.00017066064 -0.00022309854 0.00025020808 -1.4616746e-05 1.2042347e-05 -2.7618084e-05 1.7752689e-05
2.798089e-05 0.029744359 3.3685577e-05 3.0490522e-05 0.0 2.0990969e-05 1.4526753e-05 4.5127614e-05
1.2694602e-05 -2.509644e-06 9.311024e-05 5.2380932e-05 2.5156114e-05 4.6366886e-06 -1.9398989e-05 -4.606461e-06
7.0212272e-06 -0.00012480616 6.769906e-06 1.1419716e-05 -3.0170365e-06 2.3304565e-05 -1.2414546e-05 5.7812176e-06
-2.7676655e-05 9.311024e-05 5.2380932e-05 -8.668337e-08 -1.4123865e-05 2.5156114e-05 1.7162298e-05 6.1202845e-06
-3.632322e-05 8.277664e-06 -4.606461e-06 9.876271e-07 6.142263e-06 3.8449307e-05 -1.6265647e-05 -3.7463255e-05
-4.700557e-06 -2.7029586e-05 6.769906e-06 1.8760553e-05 -3.0170365e-06 -1.2414546e-05 5.7812176e-06 -3.0053467e-05
-3.4861765e-05 -3.5530506e-05 1.8103383e-05 8.196527e-05 -8.6645405e-06 -2.7695076e-05 6.329379e-05 8.726921e-06
-0.00020113596 0.01264938 7.539465e-05 -0.00019088143 0.0 2.6387894e-05 3.1784475e-05 7.581092e-06
4.9006714e-05 -1.0254502e-05 -4.284623e-05 -1.0839298e-06 -3.0851344e-05 -6.6450065e-07 -2.4542225e-05 1.0144301e-05
1.4373245e-05 6.487563e-05 3.4211413e-07 -1.3108099e-05 -5.400523e-05 -2.6770722e-05 1.991421e-05 0.00011567622
-2.6840718e-05 -4.284623e-05 -1.0839298e-06 3.0747776e-07 -2.1094995e-05 -3.0851344e-05 1.0568825e-06 -1.8422331e-07
7.068988e-06 2.2985e-06 1.0144301e-05 1.424999e-05 -2.7827607e-05 -3.4804914e-05 1.2579605e-05 7.714147e-05
-4.6154446e-06 2.1696816e-05 3.4211413e-07 2.0430494e-05 -5.400523e-05 1.991421e-05 0.00011567622 -2.7299e-05
2.0149912e-05 5.1019742e-06 -9.3274255e-05 0.00010176527 1.9823858e-05 2.0859474e-05 -4.2630058e-05 -3.4271412e-07
0.0007417689 0.02032629 0.00037508615 0.0010764553 0.0 0.00030164674 0.00030339675 0.00030241004
7.3439434e-05 -0.0003346865 2.8049279e-05 0.00013619865 3.3390785e-05 0.00016623292 0.0002435839 -8.955717e-05
-0.00012506876 0.00028854128 -9.948219e-05 -3.489742e-05 0.00012219955 -7.663598e-05 -1.9681485e-05 9.877873e-05
0.00022428932 2.8049279e-05 0.00013619865 -3.6975243e-06 0.00018026732 3.3390785e-05 -0.00011701639 -3.2745582e-05
0.00012359445 1.9294539e-05 -8.955717e-05 -8.862565e-05 4.0380415e-05 -1.43639345e-05 3.186678e-05 -0.0002569772
4.025368e-05 -2.0533485e-05 -9.948219e-05 -1.403441e-05 0.00012219955 -1.9681485e-05 9.877873e-05 0.00034980348
-9.347908e-05 -1.1025352e-05 0.0004484437 0.0002770455 -3.615402e-05 2.2290296e-05 6.0015238e-05 4.5156403e-06
-7.2145114e-05 0.0014191263 1.2702533e-05 3.1982494e-05 0.0 -0.00019596431 -0.00015547802 -0.00023254777
0.00020866681 -0.00010412751 -0.0001863643 -5.3065164e-06 0.00012096988 -0.0002719337 0.0003329388 -0.00013391727
-2.9859779e-10 -0.00025097237 1.1380181e-05 -2.7986156e-05 0.0003430188 -0.00024966663 1.6857591e-07 -0.00015345072
0.00011689833 -0.0001863643 -5.3065164e-06 0.0 2.5816313e-05 0.00012096988 -0.00024967885 -3.3597056e-10

exp_avg_sq f4 [128, 56]
00000000: 4614 bd33 366a 0d3b 087f b933 d148 c733
00000010: 0000 0000 ecc9 ab33 d721 af33 c78e aa33
00000020: 4cf4 5b33 d952 0333 2882 4532 46de d332
00000030: 0290 9531 bc07 1a33 1966 1433 7b4a 1b31
00000040: 5eb5 6831 d4f2 4d34 13f7 3832 9c95 1532
00000050: 3499 e931 ed0e fb31 d8e9 9b30 aef3 a732
00000060: e86c c532 2882 4532 46de d332 785c 922f
00000070: a6b8 cd32 0290 9531 0d7f b031 688f 0330
00000080: c0c0 4231 3153 3432 7b4a 1b31 e03e 2e31
00000090: f9df 0931 ab7e d830 48fc 7b32 1e85 aa33
000000a0: b154 3232 88c1 f231 13f7 3832 db00 5e32
000000b0: 3499 e931 d8e9 9b30 aef3 a732 7e32 9b33
000000c0: 9b8d 1832 0f8e 6d33 473f 3933 490f 5934
000000d0: 6d29 4831 08a1 f330 a04f 4632 9bfb 2d31
000000e0: 545b fd33 bf5b c33b 65ef 1534 32b7 d533
000000f0: 0000 0000 2b74 eb33 a783 e933 e7b5 ec33
00000100: 829f b433 b933 d632 9b56 2732 fa3d 8332
00000110: 0260 7c31 2ec5 c732 9f7d 1133 f43b 0531
00000120: c927 9631 34b6 8634 3ba2 5732 8844 0032
00000130: 6912 a431 9104 0732 2a9b da30 1033 0d32
00000140: 82bc bb32 9b56 2732 fa3d 8332 d10a bd2f
00000150: eb10 5e32 0260 7c31 563c 9431 1ca7 3a30
00000160: 2dd1 ab31 365d 3132 f43b 0531 7d56 5531
00000170: 7faf 5a31 36d4 1631 aa32 4732 b0ba 9a33
00000180: 4a43 4632 2083 a631 3ba2 5732 f47f 1c32
00000190: 6912 a431 2a9b da30 1033 0d32 aafa ef33
000001a0: e3b2 0d32 50e1 8c33 df6f 5133 df53 8734
000001b0: 76ad c230 7af6 a531 c724 1c33 5e01 aa30
000001c0: d946 6033 1a80 c73a fe07 7133 aad4 7e33
000001d0: 0000 0000 f36e 5333 c7d8 5233 c272 5033
000001e0: ff17 c232 eda2 9d32 9bef e831 90ed 4832
000001f0: b246 3a31 7bac 3332 fd75 a832 998e 9930
00000200: a4c2 2331 4c89 0d34 fc1a cf31 aad8 8631
00000210: 6fc7 3231 cade 6731 b208 3530 fc2c 5432
00000220: bf78 5832 9bef e831 90ed 4832 dca1 7b2f
00000230: cb9b db31 b246 3a31 10c1 2231 5aac 852f
00000240: d321 0931 786d bf31 998e 9930 f57f 0e31
00000250: 39a3 a830 64ea 9230 bc48 2132 830d 3933
00000260: 0452 c331 a675 3931 fc1a cf31 eaca 8b31
00000270: 6fc7 3231 b208 3530 fc2c 5432 d3d5 8733
00000280: cf98 a731 bba1 2933 c5fe d432 097b 0134
00000290: fa59 be30 f9f4 fc30 2a55 2d32 1a98 1530
000002a0: f314 9a34 5b31 a03b 745f 9634 f93b 8b34
000002b0: 0000 0000 282f 6034 fa87 6134 78da 5934
000002c0: d3dd 0934 6a90 b733 d2fb 1233 680f 1933
000002d0: 3e9b 3732 c290 8c33 aef2 9633 b621 7231
000002e0: 9e4b 0832 3811 0d35 57f1 b732 3006 5d32
000002f0: 8c53 8f32 387d c132 8b83 5a31 9062 4333
00000300: 4bbb 3a33 d2fb 1233 680f 1933 784d a030
00000310: 1b19 2233 3e9b 3732 86ba 6c32 e5cb 9f30
00000320: 3824 2332 7d6d cf32 b621 7231 565a c331
00000330: cff2 ee31 f4dc 5b31 c544 1533 1648 3434
00000340: 6703 cc32 60fa 1f32 57f1 b732 b255 e032
00000350: 8c53 8f32 8b83 5a31 9062 4333 75ed 8534
00000360: fe90 d932 4540 2534 6a80 dc33 9a79 2435
00000370: 6a47 2a32 e11b a631 67be 1733 ea91 4c31
00000380: fb99 e834 d17b 5d37 3eea 9d34 a89f d134
00000390: 0000 0000 46fc a234 f5a7 9d34 cac7 a534
000003a0: 0eb9 0834 2529 6534 1166 2f33 fd9d 8b32
000003b0: d7e5 8f32 cba3 1c34 bac8 8134 3670 d032
000003c0: 93d1 6a30 5042 1f35 ca38 c232 8b40 d832
000003d0: 0bcc 5f33 4271 3733 41b4 4a31 a35d 5834
000003e0: b1e5 3b34 1166 2f33 fd9d 8b32 0000 0000
000003f0: 3633 ab33 d7e5 8f32 ed30 2633 44f0 b82f
8.804686e-08 0.00215782 8.637841e-08 9.279905e-08 0.0 7.9995374e-08 8.155228e-08 7.942213e-08
5.1212098e-08 3.0576164e-08 1.1496503e-08 2.4664711e-08 4.3528425e-09 3.5862953e-08 3.4551793e-08 2.2597806e-09
3.3863539e-09 1.9180453e-07 1.0766388e-08 8.706959e-09 6.7986097e-09 7.3067583e-09 1.1344197e-09 1.9552171e-08
2.2983343e-08 1.1496503e-08 2.4664711e-08 2.6622948e-10 2.394911e-08 4.3528425e-09 5.136718e-09 4.7861315e-10
2.8340281e-09 1.04962945e-08 2.2597806e-09 2.5356073e-09 2.0063438e-09 1.575207e-09 1.4667485e-08 7.940456e-08
1.038022e-08 7.065129e-09 1.0766388e-08 1.2922295e-08 6.7986097e-09 1.1344197e-09 1.9552171e-08 7.2269344e-08
8.879762e-09 5.5310064e-08 4.313122e-08 2.021526e-07 2.9127378e-09 1.7726345e-09 1.15432215e-08 2.5317834e-09
1.1797843e-07 0.0059618647 1.3963798e-07 9.9519085e-08 0.0 1.0964171e-07 1.08738554e-07 1.1022694e-07
8.4109175e-08 2.49364e-08 9.740371e-09 1.527859e-08 3.67254e-09 2.3256316e-08 3.3874695e-08 1.9388127e-09
4.3700976e-09 2.5092015e-07 1.2551534e-08 7.466163e-09 4.775121e-09 7.8590725e-09 1.5905688e-09 8.2188905e-09
2.1855389e-08 9.740371e-09 1.527859e-08 3.4386585e-10 1.2925947e-08 3.67254e-09 4.3142263e-09 6.790388e-10
5.0005355e-09 1.032395e-08 1.9388127e-09 3.1044742e-09 3.1822933e-09 2.19485e-09 1.1594844e-08 7.205142e-08
1.1540417e-08 4.846143e-09 1.2551534e-08 9.109488e-09 4.775121e-09 1.5905688e-09 8.2188905e-09 1.11749e-07
8.247954e-09 6.560242e-08 4.876335e-08 2.5206734e-07 1.4164658e-09 4.830153e-09 3.635503e-08 1.2369517e-09
5.22185e-08 0.0015220672 5.6119454e-08 5.93324e-08 0.0 4.9228174e-08 4.9091593e-08 4.8533146e-08
2.2595485e-08 1.8351296e-08 6.7793287e-09 1.1695548e-08 2.7106748e-09 1.0458389e-08 1.9611429e-08 1.1172744e-09
2.3830262e-09 1.3181597e-07 6.0275607e-09 3.924545e-09 2.6015774e-09 3.3741565e-09 6.5859773e-10 1.2350252e-08
1.2600309e-08 6.7793287e-09 1.1695548e-08 2.2885821e-10 6.3914505e-09 2.7106748e-09 2.3683846e-09 2.4315022e-10
1.995535e-09 5.5712768e-09 1.1172744e-09 2.0736455e-09 1.227e-09 1.0689516e-09 9.387971e-09 4.3085958e-08
5.684571e-09 2.6987919e-09 6.0275607e-09 4.068501e-09 2.6015774e-09 6.5859773e-10 1.2350252e-08 6.325322e-08
4.877712e-09 3.9495472e-08 2.4795904e-08 1.2058821e-07 1.3849892e-09 1.8405039e-09 1.0089289e-08 5.4422034e-10
2.8699978e-07 0.004888696 2.8009129e-07 2.5934403e-07 0.0 2.0878781e-07 2.1004226e-07 2.0289178e-07
1.2839818e-07 8.54787e-08 3.4222303e-08 3.56371e-08 1.06873e-08 6.545589e-08 7.0290625e-08 3.5234797e-09
7.933435e-09 5.255165e-07 2.1413753e-08 1.28653e-08 1.6685384e-08 2.25251e-08 3.1797949e-09 4.5491618e-08
4.347684e-08 3.4222303e-08 3.56371e-08 1.166355e-09 3.7741398e-08 1.06873e-08 1.37794185e-08 1.1626723e-09
9.496084e-09 2.4147761e-08 3.5234797e-09 5.685517e-09 6.954316e-09 3.1994292e-09 3.475431e-08 1.6790031e-07
2.3750273e-08 9.311947e-09 2.1413753e-08 2.6116002e-08 1.6685384e-08 3.1797949e-09 4.5491618e-08 2.4945953e-07
2.532806e-08 1.5390204e-07 1.0267907e-07 6.1271714e-07 9.91154e-09 4.8344053e-09 3.5330597e-08 2.976885e-09
4.3325403e-07 1.3201455e-05 2.9413962e-07 3.904545e-07 0.0 3.0358405e-07 2.9365734e-07 3.087901e-07
1.273331e-07 2.1342255e-07 4.083819e-08 1.6253574e-08 1.675191e-08 1.458822e-07 2.417417e-07 2.4265415e-08
8.5426527e-10 5.9328613e-07 2.2610397e-08 2.517506e-08 5.210681e-08 4.2711015e-08 2.9497331e-09 2.0150632e-07
1.7499293e-07 4.083819e-08 1.6253574e-08 0.0 7.972123e-08 1.675191e-08 3.8694385e-08 3.3640124e-10

exp_avg f4 [128]
00000000: c30d 7739 c605 8938 dcec 0338 cd11 303a
00000010: e000 f7b9 c3b2 80ba f95c 5cb9 bf09 8c38
00000020: 87d8 5639 b464 62b9 27e2 83ba cbde e9b9
00000030: 0ff2 2db9 7da4 e838 505b fcb9 ede9 00ba
00000040: 3c5b 84b9 1b69 12bb 113f 25bb 6e77 eeb7
00000050: 3c13 f7b9 7cf6 83b8 ab13 01b9 118b a13b
00000060: a520 fcb7 969a 0638 5800 ff37 2235 023a
00000070: 0000 0000 3d6e 8539 0df1 f039 dc09 b838
00000080: 1fad fbb9 4340 fe38 197d 46ba e452 b039
00000090: bd8a a03a a6bb 613a 39d4 0eb8 ffd9 dd39
000000a0: ad2f f1b8 e3ac 50b9 3326 113b 7586 6d3a
000000b0: 418b b439 7dfb 84ba 115d 11b8 e172 20b9
000000c0: 87cd 2438 5a36 ff39 e2df acb8 29ff 9638
000000d0: f27f 7b3a 1ae9 86b9 348d 6436 e2a7 1f37
000000e0: 0000 0000 d69e 21b9 6f8b 4539 eabd 8736
000000f0: 1a92 513a b5de 23ba cdbf 5db8 8651 5f39
00000100: 5e51 83b9 2b6a bdb9 4d7e d03a 4dba acba
00000110: 4563 50ba d039 8a39 22be f5b9 f85a 4639
00000120: 6595 bab7 34ca 3639 55e5 82b9 b562 4cb9
00000130: 4241 1bbb 979d 8bb9 64b8 9039 3479 c039
00000140: eb6b a837 393c c739 5be0 1839 61e1 e538
00000150: 74fa 4cba 81fb 8f3b bf94 ab39 07da bf39
00000160: 8d20 bd38 03ee 0639 67da 2d3b e56b e0b8
00000170: 7df6 2cba beb4 5fb9 9de6 c039 0959 163a
00000180: fd30 27b9 5356 d3b9 2a14 05b8 aa4b 4938
00000190: bb03 97b9 7c0b dd39 47af 08b9 38d3 cfba
000001a0: 7f95 9db9 6a66 9636 8a3f 89b7 9ff3 f837
000001b0: ea39 b737 97d4 3439 8fd7 aab8 c414 4339
000001c0: 580d 27b9 5992 b5b9 d728 363a 29e6 2a3a
000001d0: adf8 7c37 a934 243a bacd 10b9 4bb9 b0b7
000001e0: c68a d5b8 3eaa 6cb9 d4cf 433b 45dd bbba
000001f0: 3309 c2b9 098f 2b39 abbe 49ba d138 b0b8
0.00023560882 6.5337445e-05 3.1453426e-05 0.000671652 -0.00047112163 -0.00098189 -0.0002101547 6.6775356e-05
0.00020489293 -0.00021590554 -0.0010061905 -0.00044607217 -0.0001658874 0.000110932604 -0.0004813322 -0.000491767
-0.00025244977 -0.002234048 -0.0025214592 -2.8427425e-05 -0.00047125842 -6.292478e-05 -0.00012309726 0.004929908
-3.0055942e-05 3.209206e-05 3.0398529e-05 0.0004967024 0.0 0.0002544987 0.00045955964 8.77564e-05
-0.00048003436 0.000121236335 -0.00075717416 0.00033631094 0.0012248378 0.00086110306 -3.4053086e-05 0.00042314825
-0.00011500656 -0.00019900831 0.0022148013 0.0009060868 0.00034436028 -0.001014575 -3.465737e-05 -0.00015301585
3.929206e-05 0.00048677885 -8.2433005e-05 7.200085e-05 0.00095939555 -0.00025732146 3.4056839e-06 9.516227e-06
0.0 -0.00015413327 0.00018839327 4.0454224e-06 0.0007994488 -0.00062511425 -5.2869134e-05 0.00021297307
-0.0002504689 -0.0003612799 0.0015906781 -0.001317808 -0.00079493626 0.00026364485 -0.00046871701 0.0001891664
-2.2242495e-05 0.00017432199 -0.00024966398 -0.00019491727 -0.002369002 -0.0002662956 0.00027603202 0.00036711397
2.0077414e-05 0.00038001107 0.00014579429 0.00010961551 -0.0007819303 0.0043939953 0.00032726486 0.00036592802
9.018285e-05 0.00012867902 0.0026527883 -0.00010701249 -0.0006598009 -0.00021334269 0.00036792914 0.0005735313
-0.0001594461 -0.00040309373 -3.172845e-05 4.7992602e-05 -0.00028803744 0.0004216096 -0.00013035267 -0.0015855795
-0.00030056757 4.482271e-06 -1.636126e-05 2.9677349e-05 2.1842268e-05 0.00017245334 -8.1463826e-05 0.00018604385
-0.00015931332 -0.00034632048 0.00069488346 0.0006519282 1.507827e-05 0.00062639505 -0.0001380955 -2.1067119e-05
-0.0001018248 -0.00022570134 0.0029878514 -0.0014332911 -0.00037009417 0.00016361116 -0.0007695953 -8.402917e-05

exp_avg_sq f4 [128]
00000000: 4765 cc34 4c31 0635 4b9d 7234 7e4d 8235
00000010: d606 c735 e0c7 cc35 9414 7934 dd2b 9134
00000020: 25a6 5634 206e 6034 e269 3f35 c6d0 a435
00000030: f950 0135 6804 3634 5846 6e34 1550 c635
00000040: 26b5 e135 1f61 0736 5594 d536 ae46 c034
00000050: 3932 c033 3a83 2d34 aaa3 4a34 42c3 0d37
00000060: 4120 1035 64ac 0a35 50a2 3935 8d46 4736
00000070: 0000 0000 2f18 ec34 8705 0835 874a 3333
00000080: c739 5335 4407 7834 3688 ac35 e23b 6734
00000090: 1ad5 a437 26b6 5c34 8f26 7d34 6e2c 3135
000000a0: 0320 0833 e294 3d36 e69b 1037 146f b135
000000b0: 37a4 6936 690b b335 0517 7834 1ba5 d036
000000c0: 0394 3e34 3537 5b34 9f14 c431 017a 6a31
000000d0: 4612 3237 723d 9b36 9944 1235 d0c6 5d34
000000e0: 0000 0000 b4cc b132 575a 0033 61a5 9732
000000f0: 6f27 b835 2b47 9534 ef74 1333 8720 1e34
00000100: 2776 b933 1580 9e33 5215 6536 42bf b936
00000110: 6bd6 c635 3bdc 7034 fd92 4237 ed27 3135
00000120: a16d ac32 2bd5 4634 259c 6934 3009 cc34
00000130: 703a 9336 f424 7535 d791 8b33 4c15 2635
00000140: 5543 1a35 3b6c 1b35 0000 8334 83a3 a034
00000150: 931b 4a36 bf13 3737 c7dc 6334 db5b cf33
00000160: 9058 8434 7784 9234 8f36 1837 65ac 0d35
00000170: 34b5 a934 a9e4 ac34 e655 6334 4811 d235
00000180: ee01 1634 4579 8434 b5e5 4834 049c 7e34
00000190: 2b28 0934 e347 2834 3550 9e32 e74c b236
000001a0: 1e5f 1635 342e 1232 bc5b 0733 0215 a731
000001b0: ee4c 8834 ddfa d232 3b10 4a34 1a24 5435
000001c0: cf0a 9233 7647 4f35 ca26 9334 8ca3 de34
000001d0: 4ef0 8031 87f7 d634 4fe1 a234 d0a3 4934
000001e0: 93be 6134 a6d1 bd35 8e49 7036 6b4d e236
000001f0: 6d55 c135 3f66 1134 7603 3634 c2e9 3033
3.807165e-07 4.9990626e-07 2.2595229e-07 9.708308e-07 1.4828645e-06 1.5257356e-06 2.3197418e-07 2.704027e-07
1.9990746e-07 2.0901689e-07 7.1307124e-07 1.2279713e-06 4.8174076e-07 1.6951674e-07 2.2191068e-07 1.4775457e-06
1.6816527e-06 2.01731e-06 6.365163e-06 3.5814213e-07 8.949832e-08 1.615962e-07 1.8872257e-07 8.449717e-06
5.3691116e-07 5.165987e-07 6.9154066e-07 2.9694377e-06 0.0 4.397602e-07 5.067199e-07 4.1744467e-08
7.86877e-07 2.3099443e-07 1.2854641e-06 2.1535337e-07 1.9649557e-05 2.0555362e-07 2.3576489e-07 6.600229e-07
3.1694082e-08 2.8249856e-06 8.619367e-06 1.3219856e-06 3.4815291e-06 1.333986e-06 2.3105174e-07 6.218104e-06
1.7748975e-07 2.0416049e-07 5.706695e-09 3.4120833e-09 1.0613881e-05 4.626513e-06 5.448906e-07 2.0654556e-07
0.0 2.06986e-08 2.9884486e-08 1.765392e-08 1.3720545e-06 2.7805194e-07 3.4332455e-08 1.472673e-07
8.6362256e-08 7.380746e-08 3.413607e-06 5.535695e-06 1.4814553e-06 2.2431861e-07 1.15975245e-05 6.599574e-07
2.0073289e-08 1.8517737e-07 2.1756621e-07 3.8004646e-07 4.3877444e-06 9.1323386e-07 6.49922e-08 6.187081e-07
5.746745e-07 5.7899496e-07 2.4400651e-07 2.9921293e-07 3.0116396e-06 1.09122475e-05 2.1221341e-07 9.655897e-08
2.4651354e-07 2.7291e-07 9.072609e-06 5.277746e-07 3.1610546e-07 3.220387e-07 2.1172272e-07 1.5651249e-06
1.397054e-07 2.467515e-07 1.8710018e-07 2.3712352e-07 1.2773732e-07 1.5672371e-07 1.8430095e-08 5.313766e-06
5.601777e-07 8.508824e-09 3.151557e-08 4.862728e-09 2.5387948e-07 2.4561297e-08 1.881862e-07 7.902869e-07
6.800621e-08 7.72175e-07 2.7409106e-07 4.1469718e-07 3.75261e-09 4.0040706e-07 3.0338785e-07 1.8779178e-07
2.1024088e-07 1.4142613e-06 3.5805601e-06 6.7443375e-06 1.4404483e-06 1.3541374e-07 1.695133e-07 4.1190795e-08

exp_avg f4 [64, 128]
00000000: b846 2c3c 9b5f b13b b592 d63b 9952 a13a
00000010: 3f30 c3b8 322c 833a f8de 333c e726 e13a
00000020: 233e 90b8 ddd7 bb3b 9601 4bb9 bdf8 08b8
00000030: d652 f53a 6f20 0a3c 9618 b3b8 6e23 42b9
00000040: bdae 36b9 c2d5 7eb9 d33b 2dba e139 0f3b
00000050: df2f 3137 3bed 8f3c 859f f83b 9743 ba38
00000060: 2a03 24b9 6400 c13b 873c 843b cf51 e0b9
00000070: 0000 0000 3437 e93b 70c3 3ab9 eaae 00b9
00000080: 742a 153c 3bc4 033c e7a8 1cba 804f 5a3b
00000090: e24e 28ba 9899 55b9 136c 973a 8102 4635
000000a0: fec3 8137 0690 b1b9 bdd2 2fba bfb6 28ba
000000b0: 9ab7 8238 2e84 223b b63b 073c 51b0 d0b9
000000c0: 2092 203a 386a 1c3b 8a45 c5b7 e2eb 8cb7
000000d0: fa12 8b3a c0e6 aab9 a02e 63b8 214f 493c
000000e0: 0000 0000 6c01 bcb7 afed 0e38 085e b0b7
000000f0: 7143 e939 6948 13b8 fc9c 79b8 0503 ce3b
00000100: 6959 17b9 b142 2db9 486e c638 a5f1 a638
00000110: e447 1cb9 6522 813b afb5 9939 af96 783b
00000120: 03d9 2ab8 9011 273c 1a48 d13a bb3f 2b3b
00000130: f0d8 d139 3aea 8d3b d5dc d03a 925b da3b
00000140: bd71 9d3b 9917 fb3b 8c06 603c 999a 893c
00000150: abba 79ba 6d32 f938 4ca3 a93b 325f 97b9
00000160: 644b 2a3c 5539 bab9 04bb 6339 9444 543a
00000170: 30c3 edb7 4657 a23b d4c2 333c 89a1 393b
00000180: 0f11 60b8 62e8 3f3c 757d 823b b7cb 1b3b
00000190: 8fb1 0cb9 2a80 1c3a 7927 1538 6678 b437
000001a0: 689c 3d3c eb5c 2eb7 176e 8d35 7906 5bb6
000001b0: 4f2f 9a3b 5a57 47b7 7e6d d6b7 7ae1 963a
000001c0: 1d4d 5ab9 a762 4039 6508 3e3c f5f7 143b
000001d0: de4c 49b6 cff3 6f3c 9453 173a 974d 203b
000001e0: 808e 363a a14b 213a d90b 32b8 1538 a7b9
000001f0: 1a19 e338 5653 05b8 f982 deb7 459a 82b8
00000200: 0263 693c 7b53 133c d6d2 7f3c 0462 8c3b
00000210: 6e43 d9b7 a6ad c93b 200f aa3c b987 593c
00000220: 6657 3738 b25d 5e3c bf11 8eb8 4047 8b37
00000230: f78a c03b 39f6 b43c f518 ec38 5a88 7c38
00000240: 6a1a 38b9 7e28 54b9 8f0f 31b9 82d7 293c
00000250: cac7 92b7 53fa 163d a228 d23c cbdb de3a
00000260: ec8a 4c39 2346 413c 388b 113c 3455 4138
00000270: 0000 0000 3cf4 fe3c c416 6838 4a18 e0b6
00000280: 49be 753c 2383 5c3c c4dc 42b9 1cce d03c
00000290: 6b06 02b9 a11c 02b9 20e3 113c 62c0 e738
000002a0: 8078 0938 6100 523a 212f 5139 b954 d739
000002b0: 7754 0939 7963 bb3b 94d0 b93c e0cb 323a
000002c0: 6fd1 bd3a 9514 033c 20e1 bcb7 8e7d bdb7
000002d0: c0f7 3d3b 9178 f339 e7f9 99b8 4959 c93c
000002e0: 0000 0000 f171 b1b7 ce45 5fb7 e6aa f733
000002f0: 001d 033b e272 9737 599a 0c38 9633 253c
00000300: 184a 1cb9 6d64 f0b8 648c 0b3b 93ca c238
00000310: c1ef 8736 83af a93c 7b4a 123b 6827 3d3c
00000320: 052a 2cb8 fe8a c83c 6af9 923b 6a4b a03b
00000330: 5068 343b 8faf b73b 4656 8d3b 87e3 873c
00000340: 6ff3 f63b 3f71 3a3c 4b27 cc3c 2bf4 3b3d
00000350: db46 25ba 1a08 513b a3e9 a63c a9cb 2838
00000360: ca6f 673c 5c9f 35b9 6dae ee3a 4932 2e3c
00000370: a44c 2db8 e571 243c 546f c03c 5182 3b3c
00000380: fdb3 7db8 153d 073d 9f38 f13b 5672 8e3c
00000390: 1535 b1b8 0a6e 2f3b 90fe 2438 1081 a03a
000003a0: 06ce a23c 1905 7db4 ba15 2eb6 d171 d3b5
000003b0: 5035 463c 21a9 3737 f31e f438 ec2c 9d3b
000003c0: 994c 0fb9 ab29 e03b d652 da3c e9d1 ae3c
000003d0: bd62 fbb6 3328 e43c 3c5c 003b c03f 5f3c
000003e0: d1bd 363a 2f1c a23b 420b 9039 f9ca 923a
000003f0: 30b6 f63a 758a d938 12b2 0ab8 5bf4 fcb7
0.010514908 0.0054130084 0.0065482506 0.0012307941 -9.307311e-05 0.0010007678 0.010978453 0.0017177731
-6.878029e-05 0.00573252 -0.0001936018 -3.2656582e-05 0.0018716704 0.008430584 -8.5399646e-05 -0.0001851448
-0.00017421968 -0.00024302959 -0.0006608341 0.0021854567 1.0561168e-05 0.017569175 0.0075873756 8.881761e-05
-0.00015641437 0.005889939 0.0040355357 -0.00042785562 0.0 0.0071171764 -0.00017811148 -0.00012272192
0.00910436 0.00804239 -0.0005976096 0.0033311546 -0.0006420446 -0.00020370481 0.0011552594 7.376439e-07
1.5469264e-05 -0.00033867377 -0.00067071227 -0.00064359227 6.2330815e-05 0.0024798024 0.008253982 -0.00039804218
0.000612529 0.0023867022 -2.3516612e-05 -1.6799142e-05 0.0010610514 -0.0003259685 -5.416444e-05 0.012286932
0.0 -2.2412009e-05 3.40768e-05 -2.1024622e-05 0.0004449147 -3.511497e-05 -5.951243e-05 0.006286981
-0.0001443379 -0.0001652341 9.461917e-05 7.9605066e-05 -0.000149041 0.0039408677 0.000293178 0.0037931611
-4.0733266e-05 0.010197058 0.0015966923 0.0026130516 0.00040025217 0.0043309005 0.0015934954 0.006663748
0.0048048184 0.007662725 0.013673436 0.01679735 -0.0009526412 0.00011882638 0.005176937 -0.0002887189
0.010393951 -0.000355194 0.00021718076 0.0008097377 -2.8343493e-05 0.0049542515 0.010971744 0.0028325042
-5.342165e-05 0.011713119 0.003982241 0.0023772547 -0.00013417586 0.00059700257 3.556113e-05 2.1513737e-05
0.011572935 -1.0392842e-05 1.0537359e-06 -3.263731e-06 0.0047053467 -1.1881662e-05 -2.5561774e-05 0.0011511289
-0.00020818827 0.00018347298 0.011598681 0.0022730802 -2.9996077e-06 0.014645531 0.0005772647 0.002446031
0.0006963983 0.0006152932 -4.244954e-05 -0.00031894507 0.00010828879 -3.1787284e-05 -2.6525451e-05 -6.227618e-05
0.014244797 0.008992071 0.015614232 0.0042841453 -2.5899815e-05 0.0061547337 0.020759165 0.013276988
4.3711996e-05 0.013572143 -6.774393e-05 1.660327e-05 0.005875941 0.022090064 0.000112580055 6.020847e-05
-0.00017557447 -0.0002023298 -0.00016885831 0.0103663225 -1.749759e-05 0.03685982 0.02565414 0.0017002759
0.00019506708 0.011796507 0.00888329 4.6094137e-05 0.0 0.03112232 5.5334312e-05 -6.678548e-06
0.014998981 0.013459 -0.00018583523 0.025488906 -0.00012400157 -0.00012408431 0.0089042485 0.000110507724
3.277557e-05 0.0008010921 0.0001994935 0.0004107112 0.00013096804 0.005718645 0.022682466 0.0006820541
0.0014481972 0.008000513 -2.2516178e-05 -2.2589022e-05 0.0028986782 0.000464384 -7.3421565e-05 0.024578707
0.0 -2.1153102e-05 -1.33080885e-05 1.153292e-07 0.00200063 1.80541e-05 3.352235e-05 0.0100831
-0.00014904921 -0.000114627976 0.0021293396 9.288373e-05 4.0512246e-06 0.020713573 0.0022322226 0.01154504
-4.104713e-05 0.02448034 0.004485299 0.0048918026 0.0027527995 0.005605645 0.004313263 0.016587986
0.0075363438 0.011379539 0.02492108 0.045887154 -0.0006304809 0.0031895698 0.020375079 4.0243995e-05
0.014125774 -0.00017320871 0.0018209942 0.010632106 -4.131779e-05 0.01003692 0.023490585 0.011444644
-6.0487528e-05 0.033017237 0.007361486 0.017388504 -8.449905e-05 0.002676847 3.9337727e-05 0.0012245495
0.01987363 -2.3564316e-07 -2.5940667e-06 -1.575385e-06 0.012097672 1.0947028e-05 0.000116405914 0.004796615
-0.00013666078 0.0068409047 0.026650827 0.021340327 -7.4918776e-06 0.0278512 0.0019586226 0.013626039
0.0006971034 0.0049472074 0.00027474208 0.0011199407 0.0018822607 0.00010373156 -3.3067605e-05 -3.0154528e-05
