logs/binary_classifier/version_0/checkpoints/best-auc-epoch=08-val_auc=0.625.ckpt (torch, 198418 bytes, 15 tensors)

net.0.weight f4 [128, 56]
0.1965168 0.03758403 0.09186981 0.05458492 0.06915438 -0.052268486 -0.2512028 -0.03103751
0.0669143 0.099288546 -0.14196151 -0.05957397 0.04613366 0.006592738 0.0719807 0.03781164
-0.15777329 -0.19618785 -0.09092071 -0.19422416 -0.13102798 0.0039905836 -0.11310988 -0.041376557
0.12323314 -0.108408324 0.033382356 -0.11196692 0.065921225 -0.13100411 -0.14985114 0.07752898
-0.09815655 0.08177557 -0.18855818 -0.0059804833 -0.07330535 -0.12041461 0.026796909 0.039865326
-0.08829595 -0.20912167 -0.068709485 -0.1865399 -0.20834555 -0.10207398 -0.04930186 -0.0890976
-0.098214254 -0.17748506 -0.07708572 -0.14752902 -0.0017409866 -0.04753376 -0.04306604 -0.13605262
-0.031139681 0.040520545 -0.04637856 -0.02846923 0.10791801 -0.2211391 -0.10134731 -0.077337146
0.14745012 0.007824725 -0.035956763 -0.051062778 -0.13727757 -0.19227815 -0.041730225 -0.161917
-0.18010512 -0.14422534 -0.18853858 -0.09199576 -0.11467142 0.04221257 0.07253545 -0.122008994
0.046069928 -0.1147813 0.056858912 -0.21249439 0.034799628 -0.052509822 -0.14294413 -0.09883034
-0.146348 0.024285166 -0.054992225 -0.20017701 0.0143720135 -0.03923175 -0.16607347 -0.23417237
0.023345433 -0.20245099 -0.058391873 -0.12738293 -0.20748246 -0.089018725 -0.02760831 -0.013555143
-0.064004965 -0.1220342 -0.09968903 -0.29104975 0.024162924 -0.16738099 0.10650882 0.0033053248
0.09314483 0.015045487 -0.19418204 0.27047372 -0.047251105 0.02741168 0.034993622 0.00090662244
-0.22594653 -0.12783693 -0.10438502 -0.004304448 0.021104833 -0.038061008 -0.009757631 -0.020086247
0.04442119 -0.12464772 0.11530641 0.092873834 -0.041257385 0.14939219 0.12965325 -0.10414987
0.08615236 0.06887053 0.047888976 0.054161556 0.08257167 -0.038632054 -0.10775149 0.011216359
0.07567513 -0.13870503 -0.12519614 0.035584886 0.007563655 0.16123891 -0.08325168 -0.08423036
-0.08335595 0.124611884 0.016810134 0.013493984 0.03569762 -0.054331776 0.081930004 -0.110173404
0.005990622 0.113342 0.046124384 -0.086664505 0.04067645 -0.04283181 -0.14424706 -0.06262393
-0.16265869 0.002415299 0.03822055 -0.3796642 0.026022345 0.082866944 0.14226124 0.118526414
-0.15611662 0.030837432 0.019731056 0.076410435 -0.029765677 0.02325776 -0.05836982 0.05384424
-0.00015344186 -0.048253797 -0.068748206 0.00032623243 0.14514 0.017392015 -0.11623503 -0.033231135
-0.026098127 0.1745396 0.0015205882 0.09476711 0.056283902 0.044806127 0.042854488 -0.037848275
0.08122807 0.041648235 -0.12219924 -0.044366915 0.10004148 0.1304666 0.11518547 0.014894206
-0.056559447 -0.0346704 0.11722777 0.0016044573 0.16991858 -0.030555647 0.053177837 0.107071504
0.051567912 -0.02223373 0.08823187 -0.014410012 -0.046936274 0.06668795 -0.13736877 -0.021751076
0.03908577 -0.07422488 0.06185793 -0.16969052 0.08360171 0.11383128 0.039226808 -0.025061276
-0.19106337 0.050456047 0.075097546 -0.083783664 -0.20494343 0.15356386 0.13405156 -0.08477569
-0.08265423 -0.031785693 0.085921206 -0.07989039 0.14797932 -0.00021635916 -0.19769515 -0.09473456
0.078619204 -0.09397076 -0.10617512 0.07981764 -0.09507538 0.04925571 -0.028111322 0.15764622
00000000: b33b 493e b6f1 193d 3d26 bc3d 7094 5f3d
00000010: d0a0 8d3d 7b17 56bd a79d 80be 6042 febc
00000020: 5d0a 893d cb57 cb3d 5c5e 11be d603 74bd
00000030: a6f6 3c3d e507 d83b 9e6a 933d 61e0 1a3d
00000040: 528f 21be 78e5 48be a334 babd b3e2 46be
00000050: 332c 06be 71c3 823b 27a6 e7bd 777a 29bd
00000060: a861 fc3d 2f05 debd f0bb 083d ea4e e5bd
00000070: b501 873d f125 06be 9472 19be 84c7 9e3d
00000080: 4d06 c9bd f379 a73d 6515 41be eef7 c3bb
00000090: 1e21 96bd ef9b f6bd 3185 db3c d349 233d
000000a0: 82d4 b4bd fe23 56be 8fb7 8cbd 5104 3fbe
000000b0: 8958 55be 2a0c d1bd bff0 49bd cd78 b6bd
000000c0: 8e24 c9bd a5be 35be 1edf 9dbd d911 17be
000000d0: d131 e4ba c3b2 42bd 0466 30bd 6151 0bbe
000000e0: a518 ffbc dff8 253d 72f7 3dbd 4d38 e9bc
000000f0: 1e04 dd3d 4a72 62be 2e8f cfbd f062 9ebd
00000100: 2afd 163e 4633 003c 6647 13bd 3427 51bd
00000110: 7e92 0cbe 90e4 44be 50ed 2abd 92cd 25be
00000120: 7a6d 38be cfaf 13be 4210 41be 4668 bcbd
00000130: d9d8 eabd 16e7 2c3d 778d 943d dadf f9bd
00000140: d2b3 3c3d 7512 ebbd e4e4 683d 2198 59be
00000150: 0e8a 0e3d 8a14 57bd f25f 12be 9067 cabd
00000160: 40dc 15be aff1 c63c 873f 61bd 34fb 4cbe
00000170: 9878 6b3c 79b1 20bd 2a0f 2abe e2ca 6fbe
00000180: ec3e bf3c 504f 4fbe 512c 6fbd ac70 02be
00000190: 4876 54be 734f b6bd d32a e2bc 6416 5ebc
000001a0: 0915 83bd 11ed f9bd c329 ccbd 7904 95be
000001b0: 53f1 c53c ec65 2bbe 4c21 da3d 269e 583b
000001c0: b7c2 be3d 5981 763c a8d7 46be 887b 8a3e
000001d0: 608a 41bd 768e e03c 7955 0f3d 67aa 6d3a
000001e0: 875e 67be afe7 02be d0c7 d5bd 540c 8dbb
000001f0: 0be4 ac3c dce5 1bbd 79de 1fbc ea8b a4bc
00000200: fef2 353d 4e47 ffbd c425 ec3d a334 be3d
00000210: 81fd 28bd 44fa 183e d2c3 043e 874c d5bd
00000220: a670 b03d fe0b 8d3d 3b27 443d 82d8 5d3d
00000230: 561b a93d a53c 1ebd d0ac dcbd d2c4 373c
00000240: 90fb 9a3d b108 0ebe 6b33 00be 75c1 113d
00000250: 89d8 f73b d01b 253e db7f aabd f880 acbd
00000260: 86b6 aabd 8434 ff3d 68b5 893c df15 5d3c
00000270: ab37 123d ff8a 5ebd ebca a73d 98a2 e1bd
00000280: fb4c c43b da1f e83d ecec 3c3d 297d b1bd
00000290: 599c 263d 6870 2fbd 80b5 13be fa40 80bd
000002a0: 0090 26be fe49 1e3b 278d 1c3d 5963 c2be
000002b0: d02c d53c 25b6 a93d eeac 113e fabd f23d
000002c0: 09dd 1fbe c89e fc3c 06a3 a13c 137d 9c3d
000002d0: 26d7 f3bc 0f87 be3c 3115 6fbd c78b 5c3d
000002e0: 3ce5 20b9 c6a5 45bd dccb 8cbd 2d0a ab39
000002f0: 959f 143e b379 8e3c a20c eebd 5f1d 08bd
00000300: bdcb d5bc 82ba 323e 794e c73a 4215 c23d
00000310: f389 663d a186 373d 3088 2f3d cb06 1bbd
00000320: e75a a63d 5797 2a3d 9843 fabd 15ba 35bd
00000330: 8ce2 cc3d 0999 053e 5ce6 eb3d d406 743c
00000340: e1aa 67bd 8d02 0ebd 1d15 f03d a74c d23a
00000350: 23ff 2d3e d64f fabc 01d1 593d 4e48 db3d
00000360: e038 533d 8323 b6bc e9b2 b43d f917 6cbc
00000370: 4040 40bd b193 883d 66aa 0cbe 502f b2bc
00000380: 6618 203d 3703 98bd be5e 7d3d 5ac3 2dbe
00000390: 6037 ab3d 6020 e93d 4aac 203d 4e4d cdbc
000003a0: 1ea6 43be 00ab 4e3d becc 993d c596 abbd
000003b0: b1dc 51be d83f 1d3e d044 093e e19e adbd
000003c0: 9f46 a9bd b731 02bd 75f7 af3d 939d a3bd
000003d0: e487 173e 78de 62b9 9970 4abe 3104 c2bd
000003e0: 1b03 a13d be73 c0bd 5772 d9bd 6e77 a33d
000003f0: e1b6 c2bd 5bc0 493d b749 e6bc 036e 213e

net.0.bias f4 [128]
-0.07786677 -0.103844725 0.093941 0.110323735 0.08604512 -0.081678495 0.035852045 -0.2498935
-0.114929885 0.0017897834 0.10490593 0.041075006 -0.24420856 -0.067607015 0.096708246 0.06467323
0.16871299 -0.0013592087 0.10482923 0.020529173 0.028008737 -0.13402344 0.020613698 0.14337718
0.0065703504 -0.0005411325 -0.12183027 0.124048695 -0.05468078 0.019248506 0.04408094 0.11697526
-0.029190777 -0.040507462 0.08288827 0.048548494 0.18778236 -0.091542505 0.038421925 0.15218167
0.094043985 -0.017222626 0.2322279 0.119894564 0.004328322 -0.14664362 -0.06093922 0.08462688
-0.13865499 -0.12676398 0.11106867 -0.022418294 0.20684215 0.16510473 0.13579185 -0.3073028
-0.09961944 0.0730086 0.071287505 -0.12762561 -0.12173074 0.10338326 0.03923618 -0.24631403
0.07345027 0.010111245 -0.00071120716 -6.76926e-07 0.09867763 0.04228494 -0.034209695 0.05051853
0.09470773 -0.26006818 -0.038819335 -0.19028105 0.18598576 -0.055302445 -0.26423615 0.065626115
-0.11101365 -0.2153832 -0.24098885 -0.018896237 -0.056482553 -0.12022483 -0.09338253 0.07725592
0.203666 0.1032343 0.19415411 0.10194996 0.15771104 -0.036318354 -0.12044608 0.15531978
-0.021628987 0.09268743 -0.3333052 0.020024644 -0.011138819 -0.249445 -0.021470804 0.048010215
-0.06624166 0.10621156 -0.00032349944 -0.01741129 -0.033765215 0.0037974913 -0.12495659 -0.052828114
0.11961607 -0.13177279 -0.37950906 0.09072603 -0.0193614 -0.09721351 0.045988806 0.034664895
-0.09249793 -0.042884186 0.20885007 0.008497346 0.17794499 0.0605818 -0.1216199 -0.017839914
00000000: 9d78 9fbd 8bac d4bd 2464 c03d 69f1 e13d
00000010: 6d38 b03d 0e47 a7bd 98d9 123d 15e4 7fbe
00000020: 5c60 ebbd 2a97 ea3a ecd8 d63d 443e 283d
00000030: cf11 7abe 8c75 8abd f90e c63d 6673 843d
00000040: 19c3 2c3e 7a27 b2ba b5b0 d63d cc2c a83c
00000050: 9472 e53c 713d 09be 0fde a83c 78d1 123e
00000060: 184c d73b cada 0dba 2682 f9bd 3e0d fe3d
00000070: f4f8 5fbd 0baf 9d3c 378e 343d ba90 ef3d
00000080: 7f21 efbc 27eb 25bd 53c1 a93d c9da 463d
00000090: 054a 403e a37a bbbd 4f60 1d3d 83d5 1b3e
000000a0: 229a c03d 7716 8dbc 27cd 6d3e 488b f53d
000000b0: 99d4 8d3b bf29 16be 679b 79bd dc50 ad3d
000000c0: 93fb 0dbe 6bce 01be f977 e33d 92a6 b7bc
000000d0: 6ece 533e 3711 293e 050d 0b3e cb56 9dbe
000000e0: 4705 ccbd 8885 953d 2fff 913d 4ab0 02be
000000f0: f74d f9bd 9aba d33d 1eb6 203d bf39 7cbe
00000100: 186d 963d a3a9 253c 4e70 3aba 00b6 35b5
00000110: 7f17 ca3d f932 2d3d 771f 0cbd 85ec 4e3d
00000120: 20f6 c13d a827 85be 0601 1fbd 09d9 42be
00000130: 0d73 3e3e d184 62bd f649 87be fc66 863d
00000140: 205b e3bd 6a8d 5cbe c8c5 76be 48cc 9abc
00000150: 405a 67bd 7038 f6bd 573f bfbd 5a38 9e3d
00000160: d28d 503e 816c d33d 56d0 463e 24cb d03d
00000170: 017f 213e 8ec2 14bd 6fac f6bd 260c 1f3e
00000180: 462f b1bc e8d2 bd3d fba6 aabe b90a a43c
00000190: 987f 36bc 836e 7fbe 8ae3 afbc 5ca6 443d
000001a0: b5a9 87bd 7285 d93d 5c9b a9b9 1fa2 8ebc
000001b0: 654d 0abd 55df 783b 3ee9 ffbd 4b62 58bd
000001c0: 45f9 f43d 72ef 06be 034f c2be 92ce b93d
000001d0: cc9b 9ebc e017 c7bd c25e 3c3d c7fc 0d3d
000001e0: 8e6f bdbd 54a7 2fbd cbdc 553e 7438 0b3c
000001f0: 3637 363e 9f24 783d db13 f9bd 0325 92bc

net.3.weight f4 [64, 128]
-0.003185211 -0.07172276 0.055714376 -0.08534651 0.04086494 0.020065596 0.05585954 -0.042224187
0.03779792 0.05372355 0.045085486 0.15350641 -0.06561622 0.03490485 -0.0086779455 -0.027636038
0.22868691 0.051131386 0.20145243 -0.0954421 -0.077286154 0.010189033 -0.06520245 0.09314157
0.027222315 -0.009768101 -0.070778936 0.022852026 0.047222905 -0.068185285 -0.13189931 -0.15894899
0.040981848 0.04994473 0.10313404 -0.058370274 0.37295446 -0.09196222 -0.020166656 -0.04546812
-0.09009911 -0.039918672 0.06969982 -0.030382287 0.13125257 -0.068883836 0.0213054 -0.068767406
-0.094726056 -0.021022998 0.17578392 -0.063565515 0.15805893 0.07214739 0.10602082 0.04627228
0.012696862 0.09183076 -0.034801528 0.11217065 -0.056941077 -0.06556501 -0.10035388 0.0036412252
0.06646538 0.09828094 -0.10195612 0.058414385 0.14094844 -0.07565067 -0.19380116 0.027932344
-0.061561562 -0.070681974 -0.030817412 -0.09525163 0.10630439 0.057542056 -0.10543106 -0.04295797
-0.07492624 -0.017022444 0.06886513 -0.026693832 0.14253812 -0.070878044 0.024714587 -0.005946855
-0.01694223 0.03964476 0.086041875 0.010309 0.022831017 0.04126262 0.036311913 0.075028054
0.11513267 0.002570488 0.00074354914 -0.0015562347 0.060095124 -0.05522911 -0.06278145 0.17488313
0.045070004 0.0044557243 -0.003459032 -0.036317155 0.0071888976 -0.07069372 0.0080497665 -0.060281534
-0.0024495441 -0.06185762 -0.06892329 -0.013395419 -0.07411869 -0.0016115335 0.04617422 0.004656382
0.0018241868 0.007853121 0.060239863 -0.053217083 0.063018166 0.019020567 0.052628703 0.032096777
-0.020054467 -0.078739874 -0.02389099 0.04965341 0.06851167 -0.10236352 -0.022429882 -0.04407356
0.041481607 -0.0524402 -0.00012880504 0.21384147 -0.07038855 0.037957553 -0.09479449 0.07385543
0.17307065 0.20149717 0.18025534 0.0055019115 -0.08885126 -0.015716318 0.044374153 0.22489357
-0.054516856 0.057055898 0.03987685 0.08106704 0.036598377 0.0016492438 -0.04805967 -5.140915e-05
-0.07694391 0.03620263 0.008620684 0.05447623 0.21601872 -0.0111271255 0.047839005 0.024940288
-0.1689875 -0.15223764 0.14675854 -0.031851243 0.03754056 -0.03873427 0.010549552 -0.045705307
0.047726676 0.031525224 0.15991473 -0.11962259 0.13815027 0.049719688 0.16398236 0.052644983
0.04870739 0.025523368 0.03704782 -0.07231891 -0.114106975 0.018338297 -0.05735213 -0.053022046
0.089637004 0.004631992 -0.060333405 0.13987796 0.074333414 0.0058782594 -0.09198691 -0.004896106
-0.06279934 -0.056831457 0.056420226 -0.05976369 0.08801729 -0.051548686 -0.04694066 0.05683496
-0.057152715 -0.015753606 0.03742409 0.017739475 0.049071636 -0.113593325 -0.007027793 -0.024763044
-0.063082546 0.008522087 0.03370607 0.010421856 0.16253452 -0.07590961 0.01962984 -0.03038568
0.1159627 0.037617072 -0.11971817 -0.07213568 0.012269496 0.030893046 -0.13256545 0.16843337
-0.01854369 -0.006882851 -0.03659788 -0.20220625 -0.015235909 -0.0652282 -0.019320223 0.025266137
0.002897311 0.053876694 0.026397645 -0.03357336 -0.05158048 -0.052589025 -0.08076327 -0.04275202
-0.055981487 -0.12532195 0.107321724 -0.11631915 0.10843475 -0.085678555 0.015759598 0.10862307
00000000: f9be 50bb 62e3 92bd c234 643d 27ca aebd
00000010: ff61 273d 9b60 a43c f9cc 643d 45f3 2cbd
00000020: fed1 1a3d 3a0d 5c3d 8fab 383d c930 1d3e
00000030: cc61 86bd 63f8 0e3d f12d 0ebc f964 e2bc
00000040: e72c 6a3e 256f 513d 8c49 4e3e 2677 c3bd
00000050: 3448 9ebd e7ef 263c dd88 85bd 02c1 be3d
00000060: 5501 df3c 630a 20bc 8cf4 90bd 2c34 bb3c
00000070: ce6c 413d baa4 8bbd 9d10 07be 86c3 22be
00000080: 95dc 273d d892 4c3d f137 d33d ab15 6fbd
00000090: e3f3 be3e b056 bcbd 8b34 a5bc c83c 3abd
000000a0: e285 b8bd c381 23bd c7be 8e3d 46e4 f8bc
000000b0: 1367 063e f812 8dbd aa88 ae3c edd5 8cbd
000000c0: bcff c1bd 6c38 acbc b300 343e a32e 82bd
000000d0: 33da 213e 03c2 933d 7221 d93d 0188 3d3d
000000e0: 8006 503c c411 bc3d 0c8c 0ebd bab9 e53d
000000f0: 0c3b 69bd f346 86bd 5686 cdbd 9fa1 6e3b
00000100: 001f 883d 8447 c93d 5fce d0bd ec43 6f3d
00000110: ca54 103e bdee 9abd d073 46be 5fd2 e43c
00000120: fa27 7cbd b6c1 90bd cc74 fcbc 4913 c3bd
00000130: 1eb6 d93d 38b1 6b3d 3dec d7bd b2f4 2fbd
00000140: ee72 99bd a772 8bbc 2909 8d3d 06ad dabc
00000150: 83f5 113e 8228 91bd 3f76 ca3c d6dd c2bb
00000160: 6eca 8abc 8b62 223d b936 b03d 14e7 283c
00000170: 1d08 bb3c fe02 293d cdbb 143d 4fa8 993d
00000180: adca eb3d a275 283b bdea 423a 92fa cbba
00000190: 4e26 763d eb37 62bd 9093 80bd 9014 333e
000001a0: 539b 383d 5301 923b edb0 62bb 4cc1 14bd
000001b0: d890 eb3b dec7 90bd 2be3 033c c5e9 76bd
000001c0: 8888 20bb 6a5e 7dbd a727 8dbd 7678 5bbc
000001d0: 8acb 97bd 173a d3ba 2e21 3d3d 9094 983b
000001e0: 8d19 ef3a 60aa 003c 13be 763d 28fa 59bd
000001f0: ab0f 813d 05d1 9b3c 3291 573d e977 033d
00000200: 4449 a4bc 5f42 a1bd 0ab7 c3bc 6061 4b3d
00000210: d94f 8c3d f7a3 d1bd dfbe b7bc 7a86 34bd
00000220: 9ee8 293d 89cb 56bd d70f 07b9 42f9 5a3e
00000230: df27 90bd 6179 1b3d 9d23 c2bd 8441 973d
00000240: 6f39 313e 4655 4e3e db94 383e 6149 b43b
00000250: a6f7 b5bd 82bf 80bc acc1 353d 804a 663e
00000260: 114d 5fbd 72b3 693d e855 233d 7a06 a63d
00000270: 2ee8 153d 702b d83a 37da 44bd 28a0 57b8
00000280: c594 9dbd 3549 143d c53d 0d3c 7822 5f3d
00000290: 0334 5d3e 8c4e 36bc d5f2 433d 934f cc3c
000002a0: 0f0b 2dbe 2fe4 1bbe df47 163e 7376 02bd
000002b0: 21c4 193d d3a7 1ebd 07d8 2c3c 7d35 3bbd
000002c0: 0c7d 433d 9820 013d b0c0 233e b0fc f4bd
000002d0: 4477 0d3e dfa6 4b3d feea 273e 44a2 573d
000002e0: 6681 473d 6216 d13c 74bf 173d f01b 94bd
000002f0: ebb0 e9bd 323a 963c 11ea 6abd a52d 59bd
00000300: 9b93 b73d f7c7 973b 2920 77bd 2b3c 0f3e
00000310: 1e3c 983d 6a9e c03b a263 bcbd 846f a0bb
00000320: f19c 80bd 1ac8 68bd e518 673d c5ca 74bd
00000330: 6942 b43d b724 53bd d944 40bd c6cb 683d
00000340: f718 6abd b50d 81bc 014a 193d 6052 913c
00000350: 57ff 483d 9ea3 e8bd 6749 e6bb dedb cabc
00000360: 6c31 81bd 39a0 0b3c 600f 0a3d 6fc0 2a3c
00000370: 736f 263e 7f76 9bbd c2ce a03c 64eb f8bc
00000380: da7d ed3d 5c14 1a3d cd2e f5bd dfbb 93bd
00000390: ff05 493c 6a13 fd3c 3dbf 07be cc79 2c3e
000003a0: f0e8 97bc 8a89 e1bb a9e7 15bd 280f 4fbe
000003b0: 09a0 79bc 5d96 85bd 7245 9ebc eefa ce3c
000003c0: d0e0 3d3b cfad 5c3d e03f d83c 3884 09bd
000003d0: 0e46 53bd 9767 57bd 3767 a5bd be1c 2fbd
000003e0: d84c 65bd 6654 00be 7ecb db3d bc38 eebd
000003f0: 0a13 de3d 3d78 afbd 461a 813c c675 de3d

net.3.bias f4 [64]
0.10926372 0.1582828 -0.0020997191 -0.12951817 -0.065840065 -0.07545034 0.07101276 0.07496781
0.022467332 0.029221574 0.1643067 0.17084557 0.14938588 0.20678885 0.046301648 0.009559929
0.023443481 -0.02102373 0.14851873 0.040102515 -0.06748648 0.17641059 0.050023515 -0.05628525
0.08235484 -0.023857364 0.098570615 0.09952542 -0.020304838 -0.09144786 0.053646974 0.033877753
-0.037081465 -0.008701623 0.031546533 0.005136333 -0.047959376 0.022920271 -0.047842372 0.084243186
0.057757832 0.21689259 0.09433301 0.17216249 0.1561134 0.028535893 0.07347445 -0.08587733
0.19235402 -0.08298136 0.011643369 0.051735323 0.10742652 0.12716497 0.005616574 0.022609077
0.06709712 0.17557696 0.10359772 0.022321917 0.0653037 0.10177554 0.109784015 0.008274519
00000000: a8c5 df3d e314 223e 719b 09bb 69a0 04be
00000010: 28d7 86bd b585 9abd 236f 913d b988 993d
00000020: 690d b83c 1562 ef3c 0440 283e 24f2 2e3e
00000030: 9df8 183e 75c0 533e cca6 3d3d 40a1 1c3c
00000040: 8b0c c03c f539 acbc 4b15 183e 8942 243d
00000050: 5a36 8abd faa4 343e 75e5 4c3d 5d8b 66bd
00000060: a8a9 a83d 8570 c3bc 64df c93d fcd3 cb3d
00000070: 5556 a6bc 0449 bbbd eebc 5b3d 66c3 0a3d
00000080: bce2 17bd 4191 0ebc f036 013d af4e a83b
00000090: 0d71 44bd 4bc3 bb3c 5df6 43bd b187 ac3d
000000a0: 7a93 6c3d 1719 5e3e aa31 c13d 5d4b 303e
000000b0: 31dc 1f3e 1bc4 e93c c679 963d 74e0 afbd
000000c0: 74f8 443e 22f2 a9bd d4c3 3e3c 6be8 533d
000000d0: 6f02 dc3d 8937 023e 3d0b b83b ac36 b93c
000000e0: 376a 893d 72ca 333e 0b2b d43d 74dc b63c
000000f0: f2bd 853d b26f d03d 71d6 e03d d991 073c

net.6.weight f4 [1, 64]
-0.08803155 -0.101528056 -0.042455707 0.090584576 0.06773705 -0.048272043 0.058363248 0.14563495
-0.14205098 0.04628494 -0.15511039 -0.016273243 0.08008592 -0.045533348 0.032049872 0.041317787
0.07561344 0.067645915 -0.015876655 -0.12292901 0.039940245 -0.14372024 -0.048193227 0.08107669
-0.110345714 -0.04541344 -0.09910542 -0.09444729 0.02669345 0.02179378 -0.05825147 0.024959946
-0.04319604 0.122819215 -0.12522107 0.053385153 0.025950992 -0.019404063 0.02050313 0.041189738
0.048320666 -0.07435901 0.025761196 -0.15484963 -0.06259478 0.12376822 -0.044675093 -0.0029914298
-0.124763414 0.083968684 0.058225915 0.06553574 -0.108937 -0.03636301 0.08062249 -0.049750853
0.013239634 -0.03731786 -0.049836528 -0.095350675 0.08423234 -0.048296876 -0.040425293 0.010245767
00000000: e349 b4bd f1ed cfbd 09e6 2dbd 6884 b93d
00000010: b9b9 8a3d e8b8 45bd 4d0e 6f3d 5421 153e
00000020: d075 11be 4795 3d3d 42d5 1ebe 774f 85bc
00000030: 1604 a43d 2d81 3abd ba46 033d d73c 293d
00000040: 38db 9a3d f189 8a3d c20f 82bc 34c2 fbbd
00000050: 6298 233d 662b 13be 4366 45bd 890b a63d
00000060: effc e1bd 7103 3abd c8f7 cabd 956d c1bd
00000070: 39ac da3c df88 b23c 1899 6ebd cd78 cc3c
00000080: 55ee 30bd a488 fb3d f439 00be 64aa 5a3d
00000090: 2d97 d43c 45f5 9ebc 2ef6 a73c 92b6 283d
000000a0: e4eb 453d 8949 98bd 2509 d33c e790 1ebe
000000b0: b131 80bd 317a fd3d 3bfd 36bd dd0b 44bb
000000c0: f683 ffbd c6f7 ab3d 4c7e 6e3d 9a37 863d
000000d0: 5d1a dfbd 61f1 14bd 671d a53d 8dc7 4bbd
000000e0: 0deb 583c 9dda 18bd 6321 4cbd 3747 c3bd
000000f0: 0182 ac3d f2d2 45bd fe94 25bd dddd 273c

exp_avg f4 [128, 56]
-3.3862314e-05 -0.0036644964 -5.0642193e-06 -4.385341e-05 0.0 -1.3472826e-05 -2.016922e-05 -1.501889e-05
8.40861e-06 9.991088e-06 5.5548267e-06 7.811344e-05 2.4487035e-05 -5.398843e-05 -4.590566e-05 4.196277e-06
2.0040176e-05 -0.00011687855 2.9449518e-05 2.4219132e-06 -3.52165e-05 5.7621295e-05 -2.0163112e-05 3.099429e-05
-4.4389675e-05 5.5548267e-06 7.811344e-05 1.9730417e-06 -4.4194e-05 2.4487035e-05 5.950766e-05 1.7610986e-05
-6.766268e-05 -1.5159802e-06 4.196277e-06 4.5615056e-07 -1.8863636e-06 -3.8912144e-06 1.3786024e-05 -0.0001845442
2.2561762e-05 6.313127e-06 2.9449518e-05 -9.794423e-06 -3.52165e-05 -2.0163112e-05 3.099429e-05 9.898052e-05
3.389559e-05 -4.6814137e-05 -6.478353e-05 6.480614e-05 -2.333191e-05 1.915737e-05 -1.1315859e-05 9.112838e-06
-3.0311656e-05 0.0011199298 -4.4488694e-05 4.4096672e-05 0.0 6.9767935e-05 6.759489e-05 5.6191486e-05
-0.00011425662 -7.4408345e-05 -2.8015116e-05 2.7160277e-05 3.4484383e-05 -6.3016436e-05 1.1632047e-05 3.9849483e-06
1.5096651e-05 0.00013820587 -1.9878553e-05 6.4190704e-06 -1.1361434e-05 2.7662982e-05 -3.212057e-06 -1.3313401e-05
9.650876e-06 -2.8015116e-05 2.7160277e-05 4.5000496e-07 -6.2043495e-05 3.4484383e-05 2.187158e-05 1.8422728e-05
-3.0142815e-05 1.9811753e-06 3.9849483e-06 -3.7760851e-06 5.7914026e-06 3.9590736e-06 3.94877e-05 2.3806035e-05
2.8781249e-06 2.459997e-06 -1.9878553e-05 -9.729465e-07 -1.1361434e-05 -3.212057e-06 -1.3313401e-05 0.00010217682
-4.0966414e-05 -1.9515617e-05 9.99179e-05 6.0687133e-05 -1.4984721e-05 1.4711779e-05 1.7127099e-05 8.872051e-06
-0.00057116314 0.008703914 -0.00030871778 -0.00048087625 0.0 -0.0003799275 -0.0003586695 -0.00035875945
7.1209695e-05 -9.028692e-05 9.727331e-05 -6.511446e-05 -1.791423e-05 -1.0377556e-05 -9.810084e-05 -4.866505e-05
4.6423338e-07 -0.00037203997 -0.0001853902 -1.8310124e-05 2.3272689e-05 -4.9476497e-05 -2.6333377e-05 -4.1743693e-05
-0.0001417133 9.727331e-05 -6.511446e-05 -6.791298e-07 2.771806e-05 -1.791423e-05 -2.070743e-05 1.5248398e-06
0.00014043656 4.361247e-05 -4.866505e-05 -3.8147724e-07 -2.8769075e-05 -3.940882e-06 2.3079165e-06 -0.00049418857
1.1011209e-05 -1.43692405e-05 -0.0001853902 -3.8095623e-05 2.3272689e-05 -2.6333377e-05 -4.1743693e-05 -3.1607113e-05
6.3420426e-05 -0.0001227805 7.056416e-05 -0.00082176144 -6.17514e-06 -2.5227708e-05 3.3376804e-05 -3.872373e-06
0.0007715221 -0.027621157 0.0003889881 0.0005842419 0.0 0.0002206746 0.00022164891 0.00026134553
0.00016831348 0.00018728022 -0.0005267049 -0.00025843718 -9.76365e-05 -1.2962646e-05 -2.0273597e-05 8.437167e-05
4.1504343e-05 0.000714132 0.00049557915 3.7579698e-06 2.9836081e-05 1.888423e-06 -1.2741427e-05 5.8857062e-05
-6.009852e-06 -0.0005267049 -0.00025843718 -2.7580486e-06 6.157284e-05 -9.76365e-05 -7.6797085e-05 -1.3317619e-05
-9.794021e-05 -1.4263782e-05 8.437167e-05 5.7580015e-05 7.868552e-05 4.4918156e-06 -9.160137e-05 0.00090409425
-5.585676e-05 -7.3384354e-07 0.00049557915 -7.453545e-05 2.9836081e-05 -1.2741427e-05 5.8857062e-05 5.5436078e-05
-0.00028773944 6.0014678e-05 -0.00033551233 0.0009706092 3.083121e-05 -2.3613155e-05 9.153984e-05 -4.9593964e-06
0.0012818022 0.0036738066 0.0020965647 0.001835802 0.0 0.0020715462 0.00201446 0.002005742
2.5018804e-05 -0.00055399974 -0.00014946492 -4.9786413e-06 3.383736e-06 -0.00044898593 0.00027242504 -2.937411e-05
-1.7964501e-07 0.0030432898 0.0013874279 1.9991165e-05 3.9135473e-05 0.00034916008 -7.707607e-08 -3.5551955e-05
0.0002543212 -0.00014946492 -4.9786413e-06 0.0 -0.00021742938 3.383736e-06 0.00034923546 -1.7964501e-07
00000000: 6207 0eb8 0c28 70bb 50ed a9b6 3eef 37b8
00000010: 0000 0000 5909 62b7 1231 a9b7 a4f9 7bb7
00000020: b412 0d37 659f 2737 9963 ba36 d5d0 a338
00000030: 8269 cd37 a371 62b8 d48a 40b8 bfcd 8c36
00000040: f31b a837 b21c f5b8 5c0a f737 2788 2236
00000050: 6eb5 13b8 65ae 7138 f423 a9b7 deff 0138
00000060: 0d2f 3ab8 9963 ba36 d5d0 a338 9968 0436
00000070: f25c 39b8 8269 cd37 dd97 7938 4ebb 9337
00000080: 20e6 8db8 af78 cbb5 bfcd 8c36 dbe4 f434
00000090: f62e fdb5 4791 82b6 864a 6737 3582 41b9
000000a0: 0443 bd37 59d5 d336 5c0a f737 ba52 24b7
000000b0: 6eb5 13b8 f423 a9b7 deff 0138 c393 cf38
000000c0: 1d2b 0e38 4c5a 44b8 65dc 87b8 88e8 8738
000000d0: e5b8 c3b7 24b4 a037 3fd9 3db7 57e3 1837
000000e0: c945 feb7 9cca 923a 5f99 3ab8 71f4 3838
000000f0: 0000 0000 6050 9238 bbc1 8d38 26af 6b38
00000100: 0e9d efb8 ad0b 9cb8 0102 ebb7 40d6 e337
00000110: 53a3 1038 b127 84b8 4327 4337 72b6 8536
00000120: 9f47 7d37 5beb 1039 dec0 a6b7 6563 d736
00000130: fd9c 3eb7 cd0d e837 b88e 57b6 9f5c 5fb7
00000140: 32ea 2137 0102 ebb7 40d6 e337 3698 f134
00000150: 591d 82b8 53a3 1038 dc78 b737 828a 9a37
00000160: 34db fcb7 55f4 0436 72b6 8536 a668 7db6
00000170: c553 c236 2fd8 8436 989f 2538 12b3 c737
00000180: cf25 4136 6d16 2536 dec0 a6b7 3096 82b5
00000190: fd9c 3eb7 b88e 57b6 9f5c 5fb7 c347 d638
000001a0: 5ad3 2bb8 78b5 a3b7 048b d138 508a 7e38
000001b0: e366 7bb7 9cd2 7637 2aac 8f37 2bd9 1437
000001c0: 1cba 15ba dc9a 0e3c 66db a1b9 1e1e fcb9
000001d0: 0000 0000 0131 c7b9 ce0b bcb9 e117 bcb9
000001e0: 6a56 9538 6c58 bdb8 36ff cb38 0f8e 88b8
000001f0: 8446 96b7 431b 2eb7 7dbb cdb8 b31d 4cb8
00000200: c03b f934 5c0e c3b9 4e65 42b9 b198 99b7
00000210: b839 c337 fc84 4fb8 7fe6 dcb7 f315 2fb8
00000220: e098 14b9 36ff cb38 0f8e 88b8 724d 36b5
00000230: 1584 e837 8446 96b7 deb4 adb7 19a9 cc35
00000240: 2742 1339 88ec 3638 b31d 4cb8 d5cd ccb4
00000250: 1e55 f1b7 eb3b 84b6 b4e1 1a36 6f8c 01ba
00000260: c8bc 3837 6b13 71b7 4e65 42b9 ddc8 1fb8
00000270: b839 c337 7fe6 dcb7 f315 2fb8 e191 04b8
00000280: 9500 8538 a4be 00b9 d8fb 9338 7a6b 57ba
00000290: 0c34 cfb6 17a0 d3b7 12fe 0b38 6eef 81b6
000002a0: f93f 4a3a c445 e2bc 19f1 cb39 cf27 193a
000002b0: 0000 0000 e364 6739 6d6a 6839 3405 8939
000002c0: 4e7d 3039 a760 4439 9112 0aba da7e 87b9
000002d0: 32c2 ccb8 247a 59b7 3811 aab7 b2f0 b038
000002e0: f314 2e38 9634 3b3a c1e9 013a 6e31 7c36
000002f0: 7f48 fa37 b875 fd35 03c4 55b7 4add 7638
00000300: 3ca8 c9b6 9112 0aba da7e 87b9 ea16 39b6
00000310: ab20 8138 32c2 ccb8 1f0e a1b8 bd6e 5fb7
00000320: 4065 cdb8 7a4e 6fb7 b2f0 b038 1282 7138
00000330: f803 a538 67b8 9636 1c1a c0b8 bd00 6d3a
00000340: bd47 6ab8 58fd 44b5 c1e9 013a ea4f 9cb8
00000350: 7f48 fa37 03c4 55b7 4add 7638 0984 6838
00000360: bcdb 96b9 45b8 7b38 b4e7 afb9 7b70 7e3a
00000370: c250 0138 dd14 c6b7 14f9 bf38 e468 a6b6
00000380: 2502 a83a 3fc4 703b 8566 093b 4b9f f03a
00000390: 0000 0000 c7c2 073b 0805 043b c472 033b
000003a0: 79df d137 4b3a 11ba afb9 1cb9 340e a7b6
000003b0: 2414 6336 df65 ebb9 45d4 8e39 6c68 f6b7
000003c0: 72e4 40b4 ee71 473b 5bda b53a b3b2 a737
000003d0: 6525 2438 790f b739 0585 a5b3 9f1d 15b8
000003e0: 6a56 8539 afb9 1cb9 340e a7b6 0000 0000
000003f0: c1fd 63b9 2414 6336 9719 b739 72e4 40b4

exp_avg_sq f4 [128, 56]
2.8733007e-07 0.002965457 2.641828e-07 2.5547163e-07 0.0 2.441257e-07 2.457267e-07 2.3357924e-07
9.2137626e-08 8.6748344e-08 3.7901888e-08 7.513197e-08 1.1427658e-08 9.9007394e-08 1.1068089e-07 3.1307712e-09
1.0118986e-08 6.034514e-07 2.9785351e-08 1.4937891e-08 1.163311e-08 2.4488465e-08 2.8896836e-09 3.7244334e-08
7.960914e-08 3.7901888e-08 7.513197e-08 3.6223363e-10 6.492747e-08 1.1427658e-08 1.9808057e-08 1.2701882e-09
8.7590815e-09 3.4112173e-08 3.1307712e-09 8.52366e-09 4.924354e-09 3.8812975e-09 4.185081e-08 2.466485e-07
3.1011712e-08 1.0650215e-08 2.9785351e-08 2.7025076e-08 1.163311e-08 2.8896836e-09 3.7244334e-08 2.3635401e-07
3.3188385e-08 1.5736607e-07 1.4107682e-07 6.8886425e-07 8.1334095e-09 1.1779992e-08 2.469616e-08 2.8639533e-09
1.763111e-07 0.005812725 1.9010035e-07 1.7097516e-07 0.0 1.773847e-07 1.7545153e-07 1.7136904e-07
7.7792805e-08 4.405788e-08 2.1303716e-08 4.4586223e-08 6.00342e-09 3.985156e-08 7.085529e-08 1.7651073e-09
6.51618e-09 4.508499e-07 2.6299654e-08 9.497828e-09 5.958196e-09 1.748893e-08 2.001477e-09 6.9858337e-09
4.7897604e-08 2.1303716e-08 4.4586223e-08 4.086645e-10 2.75826e-08 6.00342e-09 1.2759101e-08 1.3048229e-09
9.183898e-09 2.0906617e-08 1.7651073e-09 4.400574e-09 4.4839137e-09 2.1143949e-09 2.2997657e-08 1.3516399e-07
2.0623961e-08 6.8087607e-09 2.6299654e-08 1.1907922e-08 5.958196e-09 2.001477e-09 6.9858337e-09 2.2806442e-07
2.6192124e-08 1.3222062e-07 1.00474956e-07 4.354381e-07 3.9247023e-09 1.1296952e-08 3.872678e-08 1.8510948e-09
4.4659737e-07 0.0027431767 4.2423372e-07 4.0969513e-07 0.0 3.8295377e-07 3.854215e-07 3.6388204e-07
1.3425918e-07 1.482699e-07 7.2814096e-08 1.4045038e-07 2.1371603e-08 1.2186935e-07 1.2799632e-07 5.6784115e-09
2.0730981e-08 8.825168e-07 4.2996817e-08 3.3213958e-08 2.1924496e-08 2.6245988e-08 7.593352e-09 9.6250936e-08
9.686838e-08 7.2814096e-08 1.4045038e-07 5.004463e-10 7.630682e-08 2.1371603e-08 1.8112226e-08 1.8460141e-09
1.5110112e-08 3.91517e-08 5.6784115e-09 1.8072267e-08 8.232527e-09 6.8502395e-09 7.316224e-08 3.5974566e-07
5.3744003e-08 2.6639423e-08 4.2996817e-08 3.7159626e-08 2.1924496e-08 7.593352e-09 9.6250936e-08 3.5404722e-07
4.952947e-08 2.4937424e-07 2.3210077e-07 1.0349339e-06 1.0486376e-08 8.283623e-09 2.468178e-08 3.7002075e-09
2.8471602e-06 0.014115187 2.7374124e-06 3.0494714e-06 0.0 3.019337e-06 3.009264e-06 2.7740755e-06
8.4378246e-07 1.0787168e-06 4.9250724e-07 8.9036246e-07 1.04447594e-07 7.9200447e-07 8.377015e-07 3.4877488e-08
7.686579e-08 7.221145e-06 3.2764115e-07 1.6392826e-07 1.5897758e-07 2.676951e-07 3.621911e-08 5.149963e-07
5.4326e-07 4.9250724e-07 8.9036246e-07 2.9075287e-09 5.289408e-07 1.04447594e-07 1.7303711e-07 1.08443325e-08
8.9452776e-08 2.6284715e-07 3.4877488e-08 5.9442808e-08 7.860619e-08 4.518566e-08 5.041508e-07 2.4050628e-06
2.0880181e-07 1.2358888e-07 3.2764115e-07 2.3072181e-07 1.5897758e-07 3.621911e-08 5.149963e-07 3.9124357e-06
3.634567e-07 1.7215845e-06 1.6773802e-06 8.298428e-06 4.2698925e-08 8.518403e-08 8.3545565e-08 9.912683e-09
3.676095e-06 5.216824e-05 2.8997426e-06 2.5475808e-06 0.0 2.6750579e-06 2.575344e-06 2.5003935e-06
1.0901899e-06 1.3979944e-06 3.8006962e-07 1.15354815e-07 2.2131443e-08 1.358921e-06 1.967221e-06 1.0004237e-07
5.8546223e-10 6.1815763e-06 4.627204e-07 1.7825919e-07 3.183863e-07 2.2107925e-07 6.24833e-08 1.0302302e-06
1.3955081e-06 3.8006962e-07 1.15354815e-07 0.0 6.355373e-07 2.2131443e-08 2.0284618e-07 3.6198664e-10
00000000: 5842 9a34 1d58 423b 02d5 8d34 c127 8934
00000010: 0000 0000 6110 8334 6cec 8334 c6cd 7a34
00000020: 32dd c533 684a ba33 91c9 2233 3d58 a133
00000030: 5f53 4432 e49d d433 76af ed33 1c25 5731
00000040: c5d7 2d32 ddfc 2135 aeda ff32 c550 8032
00000050: f5da 4732 b45a d232 da93 4631 94f6 1f33
00000060: 96f5 aa33 91c9 2233 3d58 a133 da23 c72f
00000070: 416e 8b33 5f53 4432 6126 aa32 c692 ae30
00000080: d97a 1632 bb82 1233 1c25 5731 746f 1232
00000090: 1333 a931 415c 8531 74bf 3333 1d6b 8434
000000a0: bd31 0533 24f8 3632 aeda ff32 c524 e832
000000b0: f5da 4732 da93 4631 94f6 1f33 7fc8 7d34
000000c0: 048b 0e33 75f8 2834 e77a 1734 64ea 3835
000000d0: 1dbb 0b32 f460 4a32 6e23 d432 33cf 4431
000000e0: 0750 3d34 ac78 be3b 631e 4c34 4b95 3734
000000f0: 0000 0000 2377 3e34 c063 3c34 9001 3834
00000100: 0c0f a733 273a 3d33 5eff b632 127f 3f33
00000110: a446 ce31 4129 2b33 1c29 9833 3198 f230
00000120: ede4 df31 570c f234 8de9 e132 e42b 2332
00000130: d9b8 cc31 903a 9632 5b8a 0931 0b08 f031
00000140: f9b7 4d33 5eff b632 127f 3f33 6aaa e02f
00000150: c7ee ec32 a446 ce31 1f33 5b32 6055 b330
00000160: 36c7 1d32 2396 b332 3198 f230 dc33 9731
00000170: ec10 9a31 d44c 1131 628c c532 9821 1134
00000180: 9228 b132 7ef2 e931 8de9 e132 9893 4c32
00000190: d9b8 cc31 5b8a 0931 0b08 f031 dfe1 7434
000001a0: 17fd e032 87f8 0d34 b1c4 d733 28c6 e934
000001b0: 0cda 8631 8514 4232 8b54 2633 9c69 fe30
000001c0: e0c3 ef34 dec6 333b 3dc2 e334 12f4 db34
000001d0: 0000 0000 c498 cd34 edeb ce34 915b c334
000001e0: e228 1034 1f34 1f34 f95d 9c33 b5ce 1634
000001f0: a794 b732 31db 0234 5c6f 0934 d61b c331
00000200: e913 b232 18e6 6c35 80ab 3833 22a7 0e33
00000210: 7a54 bc32 8a73 e132 ea73 0232 83b2 ce33
00000220: f505 d033 f95d 9c33 b5ce 1634 c78f 0930
00000230: 1ede a333 a794 b732 3595 9b32 d9b6 fd30
00000240: 7dcb 8132 c027 2833 d61b c331 563d 9b32
00000250: 096f 0d32 585f eb31 5e1d 9d33 1123 c134
00000260: 28d4 6633 b6d4 e432 80ab 3833 7199 1f33
00000270: 7a54 bc32 ea73 0232 83b2 ce33 e113 be34
00000280: 3aba 5433 bce1 8534 6037 7934 0fe8 8a35
00000290: 9227 3432 c24f 0e32 cf03 d432 bd46 7e31
000002a0: d711 3f36 6343 673c 63b4 3736 85a5 4c36
000002b0: 0000 0000 d19f 4a36 c3f2 4936 412a 3a36
000002c0: 4a80 6235 6dc8 9035 d734 0435 3e01 6f35
000002d0: ac4c e033 229a 5435 69de 6035 34cc 1533
000002e0: 6a11 a533 2a4d f236 a8e6 af34 4204 3034
000002f0: 6db3 2a34 bcb7 8f34 558f 1b33 473e 0a35
00000300: 8bd4 1135 d734 0435 3e01 6f35 c9cd 4731
00000310: 89fc 0d35 ac4c e033 14cc 3934 e14d 3a32
00000320: 2f19 c033 701d 8d34 34cc 1533 0f4e 7f33
00000330: 36ce a833 2912 4233 fb54 0735 aa66 2136
00000340: 0133 6034 dab3 0434 a8e6 af34 54bc 7734
00000350: 6db3 2a34 558f 1b33 473e 0a35 9147 8336
00000360: 1c21 c334 3111 e735 5822 e135 7a39 0b37
00000370: f763 3733 6aee b633 a969 b333 714c 2a32
00000380: d5b2 7636 39cf 5a38 3399 4236 1bf7 2a36
00000390: 0000 0000 2585 3336 13d4 2c36 6fcc 2736
000003a0: a452 9235 b9a2 bb35 5f0c cc34 fbb8 f733
000003b0: 8f1b be32 2c64 b635 9904 0436 e0d6 d633
000003c0: 3eee 2030 566b cf36 cf6b f834 8367 3f34
000003d0: aeee aa34 cd61 6d34 8f2e 8633 7146 8a35
000003e0: 4b4d bb35 5f0c cc34 fbb8 f733 0000 0000
000003f0: ca99 2a35 8f1b be32 efcd 5934 1701 c72f

exp_avg f4 [128]
-1.9273511e-05 0.00012584923 -0.00081245584 0.0005011707 0.0044462006 0.0017282893 6.9872e-05 0.00031740786
-0.00013263327 0.00031457184 -0.0019720239 0.00056603755 0.00012657097 -0.0001381975 -0.0016979007 -0.0012621164
-0.0027026415 -0.0039591365 0.009485082 -0.00031214269 -3.2040054e-05 -8.163422e-05 4.26644e-05 0.0038933638
0.0018478074 -0.00031380405 0.000114064256 0.0013462614 0.0 -2.4988663e-05 -0.0019765145 -0.00045974334
0.0009863558 -3.9683513e-05 0.00052232936 -0.00020713924 0.00072163995 -0.0012409525 -1.705684e-05 0.001405641
-0.0009261704 -0.0025507093 0.0014125465 -0.0017650578 -0.0035507493 -0.0010477458 -6.866677e-07 -0.0022152406
-9.378175e-05 -5.649381e-05 0.0004051541 -0.0016945023 0.0036778701 0.0021307056 -4.6791207e-05 2.0416208e-05
0.0 -0.00089523726 0.00024903714 0.00038377653 0.0005162187 -0.0015169502 0.0004897224 -2.9030827e-05
0.001668615 0.00029051673 0.00027287053 0.0029654563 0.00038840724 -6.208142e-05 -0.0020217788 -9.5363546e-05
-0.0001514768 -6.2522304e-05 -0.00036996213 -8.305783e-05 0.005215854 0.0005226516 0.00032530082 -0.00032270074
5.6689467e-05 -0.00011132383 0.00039083455 1.3674786e-06 0.0034025232 -0.0012183142 0.00030831364 -0.0014213057
0.00013237388 0.00044153613 0.0010668442 0.00029571523 0.002278331 0.00017681668 3.3366778e-05 0.002746472
0.0018668947 -0.00023406281 -0.00025819681 0.000771629 -0.0013473383 -4.4644767e-05 -0.0016845933 -0.00022210093
-0.00010252599 -0.00025879304 9.413228e-06 -0.00029234323 3.517313e-07 -0.0024867028 -0.0010700764 -0.00047622537
-0.00045911266 0.00074705825 5.3984248e-05 0.00019525584 -4.366174e-05 0.00043334652 0.00036177778 -0.00023513922
0.000446134 -0.00065256894 0.00052176457 -0.0014223391 0.0018850456 -0.0006765215 0.0012209335 -4.85698e-05
00000000: 8dad a1b7 65f6 0339 fdfa 54ba ff60 033a
00000010: 6fb1 913b c487 e23a 3f88 9238 c369 a639
00000020: 7913 0bb9 1eed a439 123d 01bb 2362 143a
00000030: 23b8 0439 1ce9 10b9 188c deba 996d a5ba
00000040: cd1e 31bb a5bb 81bb 5167 1b3c 15a7 a3b9
00000050: bf62 06b8 0a33 abb8 8df2 3238 ce27 7f3b
00000060: 2132 f23a 1186 a4b9 c835 ef38 0975 b03a
00000070: 0000 0000 bf9e d1b7 6988 01bb b509 f1b9
00000080: 9c48 813a d971 26b8 eeec 083a 8433 59b9
00000090: 702c 3d3a 75a7 a2ba 4915 8fb7 7c3d b83a
000000a0: 3eca 72ba cd29 27bb 3225 b93a 8359 e7ba
000000b0: b0b3 68bb 8454 89ba 7253 38b5 922d 11bb
000000c0: b2ac c4b8 c4f3 6cb8 dd6a d439 101a deba
000000d0: 6c08 713b 4fa3 0b3b ad41 44b8 7943 ab37
000000e0: 0000 0000 5bae 6aba 3391 8239 9d35 c939
000000f0: da52 073a 67d4 c6ba b760 003a 3a87 f3b7
00000100: 6eb5 da3a 7f50 9839 1010 8f39 1a58 423b
00000110: 23a3 cb39 b531 82b8 d27f 04bb eafd c7b8
00000120: bed5 1eb9 681e 83b8 7af7 c1b9 552f aeb8
00000130: c1e9 aa3b 8e02 093a 238d aa39 2930 a9b9
00000140: dac5 6d38 8776 e9b8 ede8 cc39 358a b735
00000150: defc 5e3b d7af 9fba 28a5 a139 1b4b baba
00000160: d8cd 0a39 fa7d e739 5ad5 8b3a 3a0a 9b39
00000170: 0d50 153b de67 3939 4ef3 0b38 27fe 333b
00000180: 97b2 f43a c26e 75b9 975e 87b9 2547 4a3a
00000190: 2c99 b0ba f440 3bb8 92cd dcba c4e3 68b9
000001a0: 3903 d7b8 9dae 87b9 82ed 1d37 a545 99b9
000001b0: 95d5 bc34 f3f7 22bb ce41 8cba e3ad f9b9
000001c0: 0fb5 f0b9 3bd6 433a 256d 6238 97bd 4c39
000001d0: 7021 37b8 c932 e339 feac bd39 b48f 76b9
000001e0: 18e7 e939 2911 2bba 07c7 083a c86d baba
000001f0: a213 f73a 9758 31ba bb07 a03a 6db7 4bb8

exp_avg_sq f4 [128]
1.1334228e-06 8.031971e-07 1.7597317e-06 1.3752659e-05 1.2521022e-05 8.261514e-05 2.028934e-06 9.0034e-07
3.524111e-05 5.60824e-07 2.546312e-05 0.0001357349 1.4572596e-06 3.731526e-07 4.676506e-05 2.2997063e-05
0.00011519291 0.00014117674 0.00016402369 6.1314813e-06 4.752024e-05 4.3476302e-07 6.959651e-07 0.00011903998
9.3243856e-05 2.2302495e-06 1.7327968e-06 5.1153613e-05 0.0 1.1176361e-06 1.1562117e-05 7.999584e-06
4.597537e-06 5.88276e-07 5.006866e-05 1.0613519e-06 0.00037505996 3.1949814e-06 7.9722605e-07 4.432445e-06
1.3161595e-05 7.872383e-05 9.895159e-05 6.2181185e-05 7.841101e-05 4.408638e-05 9.869755e-07 0.00012982174
2.637262e-07 1.1863217e-06 5.9750987e-06 3.7732402e-06 0.00036005618 0.00016622362 1.1846635e-05 7.9511733e-07
0.0 4.401067e-06 5.2566056e-06 7.5817624e-08 4.099412e-05 2.5345853e-05 4.0921004e-06 4.639354e-07
6.2844206e-06 1.2143954e-06 0.00013709963 8.312225e-05 0.000104637445 5.500038e-07 0.00023769162 1.1391423e-05
3.4064024e-06 3.6714485e-07 2.5158297e-06 2.7467306e-06 0.00015357771 3.2541955e-06 3.9484897e-07 1.0919102e-06
3.301166e-06 9.4683213e-07 6.7715587e-07 1.3009729e-06 6.828599e-05 0.00015904669 1.141955e-06 7.451114e-06
1.4410426e-06 2.7698852e-06 8.3773615e-05 8.147512e-07 9.1643255e-05 6.9083177e-07 4.2417747e-07 1.9086807e-05
4.1295763e-05 1.2492702e-06 5.235585e-07 7.788309e-07 8.1313965e-06 3.768654e-07 1.1353445e-05 0.00017858703
7.3228e-07 2.1323659e-07 1.9632763e-08 4.599176e-06 3.8772984e-07 1.2128669e-05 7.3518335e-05 7.747142e-06
1.7517349e-06 6.590687e-06 5.820094e-07 1.4502643e-06 6.9865758e-09 8.2341984e-07 8.148291e-06 9.524736e-07
1.7474916e-06 2.0058204e-05 7.4599586e-05 0.00013229708 4.721714e-05 9.2092705e-06 6.893798e-06 1.7173829e-06
00000000: 1c20 9835 499b 5735 ec2f ec35 38bb 6637
00000010: 6111 5237 aa41 ad38 d228 0836 e5ae 7135
00000020: dbcf 1338 888b 1635 a299 d537 0f54 0e39
00000030: 0f97 c335 b455 c834 9a25 4438 d1e9 c037
00000040: b993 f138 d808 1439 c6fd 2b39 06bd cd36
00000050: 7850 4738 6069 e934 5cd2 3a35 1aa5 f938
00000060: ea8b c338 65ab 1536 7292 e835 c68d 5638
00000070: 0000 0000 af01 9635 eafa 4137 f435 0637
00000080: 8b44 9a36 05ea 1d35 d000 5238 c673 8e35
00000090: b2a3 c439 5d69 5636 f500 5635 6aba 9436
000000a0: 9fd0 5c37 8918 a538 3b84 cf38 4567 8238
000000b0: 9770 a438 64e9 3838 3878 8435 c220 0839
000000c0: 4196 8d34 b439 9f35 b57d c836 c637 7d36
000000d0: ecc5 bc39 504c 2e39 e9c0 4637 0c70 5535
000000e0: 0000 0000 e1ac 9336 e661 b036 2ed1 a233
000000f0: 1af1 2b38 ce9d d437 e04e 8936 cc12 f934
00000100: c3de d236 4ffe a235 67c2 0f39 eb51 ae38
00000110: cd70 db38 f9a3 1335 dc3c 7939 ca1d 3f37
00000120: 8c99 6436 011c c534 a0d5 2836 7954 3836
00000130: b409 2139 a762 5a36 a1fb d334 c08d 9235
00000140: 9a89 5d36 cf29 7e35 ccc5 3535 179d ae35
00000150: c334 8f38 c5c5 2639 4645 9935 9504 fa36
00000160: d969 c135 44e2 3936 9eaf af38 47b5 5a35
00000170: 9930 c038 9971 3935 82ba e334 9b1c a037
00000180: fd34 2d38 99ac a735 ab8a 0c35 da10 5135
00000190: 156c 0837 fc53 ca34 ad7a 3e37 1743 3b39
000001a0: e691 4435 07f6 6434 e7a4 a832 9f52 9a36
000001b0: 2f29 d034 3d7c 4b37 db2d 9a38 b9f9 0137
000001c0: 271d eb35 9225 dd36 623b 1c35 b4a6 c235
000001d0: 920e f031 fb08 5d35 a5b4 0837 7dad 7f35
000001e0: 5b8b ea35 aa42 a837 5972 9c38 3ab9 0a39
000001f0: 050b 4638 8481 1a37 4651 e736 d480 e635

exp_avg f4 [64, 128]
0.00089104293 -0.00085923146 0.0005503518 -0.00019823728 0.00030350298 6.436877e-05 0.00055194256 -0.000129133
2.4141544e-05 -7.732045e-05 1.530996e-05 -1.0972417e-05 9.967022e-05 5.3431704e-06 0.00050798216 0.00039529384
-0.00013967327 0.00015172227 0.0004652708 0.0005513923 0.00036483494 -0.0009989548 -0.00073387317 0.00027108006
0.00017471048 -0.0008446316 0.00023786047 0.0002498307 0.0 -0.0008810203 0.00020575974 -1.6017699e-05
-0.00094525825 3.498035e-05 0.00017283844 0.0002040322 0.00013542932 0.0002037328 8.382473e-05 0.00028475045
0.00015748934 0.00076396833 4.189921e-05 0.0008300702 -9.303023e-05 5.005792e-05 -0.000142848 0.00069133256
-3.9395422e-07 5.412276e-06 -1.7392802e-05 5.7622787e-05 6.650969e-05 0.00017762081 -5.994041e-05 0.0005098841
0.0 -0.00037582466 1.5645992e-05 3.5290059e-06 -5.3782587e-05 -1.9819574e-05 4.504788e-06 0.0003086607
0.00019218851 0.00012798437 0.00038034772 2.7803344e-05 0.00020819598 6.25406e-05 9.0994545e-05 -0.00036806555
4.0080547e-05 0.00013976503 4.2553147e-05 0.00013495144 0.00035826222 -0.00013939445 -1.0919658e-06 5.94041e-05
0.00058054354 0.0007808889 -8.777462e-05 0.0003152754 0.0005484916 0.00043343866 2.2063887e-05 0.0003490238
-0.0011665877 0.00027019734 -3.4880213e-05 -0.00010420716 5.035165e-05 -5.972218e-05 -9.7741235e-05 0.00029544753
5.4898086e-05 0.00096414576 0.0003206114 -0.0007279977 0.00025457414 5.5456334e-05 -9.267479e-06 0.00011757938
-0.00085348095 -3.3199767e-06 -8.6021544e-07 3.633797e-05 6.841175e-05 0.00012155861 0.0002251267 8.291915e-05
-2.5096333e-05 -0.0010701383 0.00013988245 -1.6893873e-05 -6.669176e-09 -0.00094460417 2.1046633e-05 0.00014791364
0.00011097425 0.00025555017 4.1717394e-05 0.00066966686 0.00030943926 9.580888e-05 7.562671e-05 0.00019120247
0.00012897728 -0.00064711086 0.00032833006 -0.00025610448 0.00021099648 -2.1678476e-05 9.8300625e-05 0.0005693078
-5.2788746e-05 -0.00023830922 7.3830315e-06 -9.142054e-05 1.1073433e-05 0.0003779162 0.00037454139 -4.3101092e-05
-4.468834e-05 0.00018311728 0.0003489866 0.00024587056 0.00023365562 -0.00036649947 -0.00065751356 0.00011136956
-0.00021627484 -0.0010145031 0.000496025 -0.00015319654 0.0 -0.0013300822 0.00018103006 -1.0349297e-05
-0.00022790254 0.00016397175 -6.591449e-05 0.00025065494 0.00010713992 7.5319374e-05 0.00018727874 0.00020400972
1.7346467e-05 0.00036734313 -5.7420373e-05 0.00011652728 -3.4475237e-05 -9.175078e-05 0.00017960697 1.8909164e-05
1.7721897e-05 -1.1894825e-05 -3.3492575e-05 3.6036974e-05 0.00017054366 6.645032e-05 -7.673921e-05 0.0010028196
0.0 -0.00037377857 6.992664e-06 1.44805035e-05 -0.00021485334 -8.694431e-05 8.625011e-06 0.0003806307
5.5459484e-05 0.00013414303 -6.280373e-05 0.00011810015 0.00011444728 -9.477111e-05 3.7912316e-05 -0.00023887475
1.1323244e-05 0.0004463172 3.766551e-05 8.841052e-05 0.00041372428 -0.00019618083 -4.2408315e-05 -0.00019988057
0.0005672065 0.00041367684 0.00025539025 -0.00035237285 0.00026480635 0.00015718042 0.00021988683 0.00021536129
-0.001891158 0.00038668842 -9.198737e-05 -0.00013037477 -5.034117e-05 0.0004197807 0.0007362235 0.000109894085
7.312603e-05 0.0010639363 0.00010518742 -0.0007137596 0.00020283845 2.2885233e-05 -3.4014924e-05 0.00019794371
-0.00042117207 -5.189997e-06 -3.206122e-07 -3.7563066e-06 3.0261226e-06 0.00014804925 -0.00018192118 0.00028448633
-5.377558e-05 -0.00059861253 1.6458085e-05 0.00045928976 -7.906253e-09 -0.0015060252 -0.00010439792 0.00033113197
0.00015633166 1.6061238e-05 8.138234e-05 3.900894e-05 0.00022546554 8.894236e-05 0.0001221148 0.00025509036
00000000: e194 693a 0c3e 61ba 7c45 103a eadd 4fb9
00000010: 7b1f 9f39 b8fd 8638 3db0 103a e067 07b9
00000020: 9283 ca37 1a27 a2b8 e46d 8037 2c16 38b7
00000030: 0b06 d138 7c49 b336 1b2a 053a 713f cf39
00000040: 4275 12b9 a317 1f39 97ef f339 508b 103a
00000050: 5147 bf39 5cef 82ba 6561 40ba c01f 8e39
00000060: 7d32 3739 446a 5dba 2f6a 7939 b5fb 8239
00000070: 0000 0000 46f4 66ba 36c1 5739 bf5d 86b7
00000080: 35cb 77ba ddb7 1238 f73b 3539 7af1 5539
00000090: 0802 0e39 1ba1 5539 0fcb af38 8f4a 9539
000000a0: b923 2539 0c45 483a efbc 2f38 1199 593a
000000b0: 3919 c3b8 48f5 5138 78c9 15b9 8b3a 353a
000000c0: a880 d3b4 199b b536 c2e6 91b7 ffaf 7138
000000d0: 1e7b 8b38 b93f 3a39 8668 7bb8 bea9 053a
000000e0: 0000 0000 550a c5b9 833f 8337 dcd3 6c36
000000f0: 9d94 61b8 3642 a6b7 d627 9736 bdd3 a139
00000100: 3686 4939 8b33 0639 6869 c739 3a3b e937
00000110: 2f4f 5a39 3b28 8338 53d4 be38 ecf8 c0b9
00000120: 291c 2838 e48d 1239 187b 3238 c081 0d39
00000130: 24d5 bb39 6a2a 12b9 a98f 92b5 ab28 7938
00000140: 9e2f 183a 91b4 4c3a a413 b8b8 8c4b a539
00000150: a6c8 0f3a 273f e339 d615 b937 2efd b639
00000160: 30e8 98ba 46a9 8d39 584c 12b8 cb89 dab8
00000170: ac30 5338 347e 7ab8 6dfa ccb8 4ce6 9a39
00000180: 5f42 6638 babe 7c3a bc17 a839 19d7 3eba
00000190: 5d78 8539 c999 6838 857b 1bb7 f394 f638
000001a0: 23bc 5fba c4cc 5eb6 8ee9 66b5 9969 1838
000001b0: 4778 8f38 48ed fe38 fd0f 6c39 e1e4 ad38
000001c0: f785 d2b7 e243 8cba 69ad 1239 51b7 8db7
000001d0: b126 e5b1 509f 77ba 4d8d b037 4419 1b39
000001e0: d9ba e838 5dfb 8539 b6f9 2e38 958c 2f3a
000001f0: 3c3c a239 00ed c838 c899 9e38 867d 4839
00000200: 133e 0739 e0a2 29ba b723 ac39 c345 86b9
00000210: f03e 5d39 2cda b5b7 bf26 ce38 9a3d 153a
00000220: 7c69 5db8 a5e2 79b9 c2bb f736 07b9 bfb8
00000230: 08c8 3937 0e23 c639 185e c439 72c7 34b8
00000240: bd6f 3bb8 2c03 4039 30f8 b639 30e8 8039
00000250: 7401 7539 ba26 c0b9 fd5c 2cba 148f e938
00000260: d6c7 62b9 13f9 84ba ad07 023a 62a3 20b9
00000270: 0000 0000 2756 aeba e3d2 3d39 e4a1 2db7
00000280: 1ff9 6eb9 d5ef 2b39 933b 8ab8 566a 8339
00000290: 4eb0 e038 c8f4 9d38 4160 4439 71eb 5539
000002a0: 4183 9137 f697 c039 a8d6 70b8 1b60 f438
000002b0: 8199 10b8 536a c0b8 e154 3c39 1f9f 9e37
000002c0: 7ca9 9437 e28f 47b7 617a 0cb8 6826 1738
000002d0: f7d3 3239 3e5b 8b38 0def a0b8 0b71 833a
000002e0: 0000 0000 b6f7 c3b9 87a2 ea36 4af1 7237
000002f0: 414a 61b9 df55 b6b8 24b4 1037 638f c739
00000300: 2b9d 6838 bfa8 0c39 7fb5 83b8 89ac f738
00000310: 6a03 f038 dabf c6b8 0a04 1f38 747a 7ab9
00000320: f6f8 3d37 aeff e939 09fb 1d38 0969 b938
00000330: 22e9 d839 e4b5 4db9 95df 31b8 0897 51b9
00000340: 95b0 143a c4e2 d839 e6e5 8539 afbe b8b9
00000350: b5d5 8a39 ccd0 2439 6c91 6639 9bd2 6139
00000360: bce0 f7ba 71bc ca39 58e9 c0b8 36b5 08b9
00000370: 6b25 53b8 0316 dc39 1fff 403a f076 e638
00000380: 3d5b 9938 c773 8b3a 1198 dc38 991b 3bba
00000390: 08b1 5439 aaf9 bf37 3fab 0eb8 1c8f 4f39
000003a0: c2d0 dcb9 bc25 aeb6 9b20 acb4 db14 7cb6
000003b0: 6414 4b36 ab3d 1b39 18c2 3eb9 1c27 9539
000003c0: 178d 61b8 35ec 1cba 780f 8a37 d4cc f039
000003d0: 12d4 07b2 d265 c5ba 35f0 dab8 c89b ad39
000003e0: f6ec 2339 3fbb 8637 d0ab aa38 889d 2338
000003f0: f26a 6c39 9186 ba38 f10b 0039 a6bd 8539
