logs/version_0/checkpoints/best-model-epoch=01-val_loss=0.654.ckpt (torch, 197909 bytes, 15 tensors)

net.0.weight f4 [128, 56]
0	0x3daa09a8	0.08302623
1	0xbd1d1cba	-0.038357474
2	0x3cea09f8	0.028569207
3	0xbccd6e32	-0.02507696
4	0x3c975710	0.018474132
5	0x3d40c938	0.047066897
6	0xbba96342	-0.005169303
7	0xbd894dcf	-0.06704294
8	0x3d4d8be3	0.050182234
9	0x3e486486	0.19569597
10	0x3e22a77e	0.15884206
11	0x3c71ac5d	0.014750567
12	0x3df98979	0.12184424
13	0x3dcbc4c8	0.099496424
14	0xbdc77807	-0.0973969
15	0x3cae628c	0.021287225
16	0xbe021b9f	-0.12705849
17	0x3ce39047	0.027778758
18	0xbd8a2b28	-0.06746513
19	0xbc970b97	-0.018438144
20	0xbcf4540f	-0.029825239
21	0x3c99e030	0.018783659
22	0xbdc75768	-0.09733468
23	0xbcb58df2	-0.022162411
24	0xbd98cafd	-0.07460592
25	0x3de379be	0.11107205
26	0x3a8e615d	0.0010862757
27	0xbdb5ce1a	-0.088772014
28	0xbdaaec41	-0.08345843
29	0xbdacf4cf	-0.08445131
30	0x3db49744	0.08817914
31	0xbd41ae86	-0.04728558
32	0x3ca19f2b	0.019729218
33	0xbd8ce7f7	-0.06880181
34	0x3dc021b4	0.09381428
35	0xbcd06b2c	-0.025441729
36	0xbc967018	-0.018363997
37	0x3b84241b	0.0040326244
38	0xbc467ec2	-0.012115182
39	0xbddd5897	-0.10807913
40	0x3b827c35	0.003982092
41	0xbdef1bb6	-0.11675207
42	0xbe043aa8	-0.12913
43	0x3ca8f3a2	0.020623986
44	0xbda77ed5	-0.08178488
45	0x3c5313e0	0.012883157
46	0x3df43f1c	0.119261
47	0x3d7a28ac	0.061073944
48	0x3cff5d79	0.0311725
49	0x3de56ae1	0.11202026
50	0xbc62fba9	-0.013853946
51	0xbe01e176	-0.12683663
52	0x3d045b53	0.032313656
53	0xbd7c326e	-0.06157153
54	0x3dc17614	0.0944635
55	0x3be7ad70	0.007070236
56	0xbd840cf0	-0.0644778
57	0xb9d671be	-0.00040902005
58	0x3c978501	0.018496038
59	0x3b628157	0.0034561956
60	0xbdf55b3e	-0.11980294
61	0xbd368c21	-0.04456723
62	0xbdd1e6fc	-0.10249135
63	0xbd79ac5a	-0.060955383
64	0x3ddfc07d	0.10925386
65	0x3dff69f8	0.12471384
66	0x3d9d2f2a	0.076750115
67	0xbd0b4142	-0.03399778
68	0x3dfa3272	0.12216653
69	0xbd9856e7	-0.0743845
70	0x3d681993	0.056665014
71	0xbd9c9967	-0.07646447
72	0x3db47c22	0.08812739
73	0xbdd1f15c	-0.10251114
74	0xbb9fcffe	-0.0048770895
75	0xbd21ceaa	-0.03950373
76	0xbda8179c	-0.08207628
77	0xbd70f2e1	-0.058825377
78	0x3db4f134	0.08835068
79	0xbd17b926	-0.037041806
80	0xbd5c1455	-0.053730328
81	0xbcfda402	-0.030961994
82	0x3cb5ffe6	0.022216748
83	0x3d5162d1	0.05111963
84	0x3c827337	0.01592408
85	0x3bcbbe5c	0.006217761
86	0xbcf40b5c	-0.029790573
87	0x3dace399	0.08441848
88	0xbbed0ef8	-0.0072344504
89	0xbcce5092	-0.025184903
90	0x3da0ef57	0.078581505
91	0x3cab94ac	0.020944916
92	0x3c8a7e65	0.016905973
93	0xbc77c054	-0.015121538
94	0xbd3a339b	-0.04545937
95	0xbded3b27	-0.11583548
96	0xbd689eb0	-0.05679196
97	0x3e067d1e	0.13133666
98	0xbd0d940d	-0.03456502
99	0x3d9c5136	0.07632677
100	0xbc816273	-0.015794015
101	0x3de20f20	0.11038041
102	0xbdd08d45	-0.10183195
103	0xbe09bd85	-0.13451202
104	0xbda64a36	-0.08119623
105	0x3d8e87c6	0.069594905
106	0x3da6cbc5	0.08144335
107	0x3d76968d	0.06020217
108	0xbb3224bf	-0.0027182547
109	0x3e0e068a	0.13869682
110	0xbd1f34e9	-0.03886882
111	0xbdc730b9	-0.0972609
112	0x3e1701c2	0.14746764
113	0x3d534d5a	0.05158744
114	0xbb9a566b	-0.004710009
115	0x3e54ba75	0.20774253
116	0x3dc51904	0.09623912
117	0xbcb4821a	-0.022034694
118	0xbd31fc7e	-0.043453686
119	0xbdb02033	-0.085998915
120	0x3e60c32a	0.21949449
121	0xbe2ad107	-0.166813
122	0x3da54d3f	0.08071374
123	0x3dae0f87	0.08499055
124	0x3dc8567c	0.097821206
125	0xbdacabed	-0.0843123
126	0x3dd50201	0.10400773
127	0xbd9c25d5	-0.076244034
128	0xbd84823d	-0.064701535
129	0xbcda6f59	-0.026664423
130	0xbe41df03	-0.18932728
131	0xbb959454	-0.004564801
132	0xbd9d4c12	-0.07680525
133	0xbd8598d0	-0.06523287
134	0x3d7364f2	0.05942244
135	0x3c417ca7	0.011809505
136	0xbe003575	-0.12520392
137	0x3d4895af	0.048970874
138	0xbd067121	-0.032822732
139	0x3da5a5b9	0.0808825
140	0xbde3fe1f	-0.11132454
141	0x3d27db62	0.040980704
142	0x3d043a4d	0.032282162
143	0x3d4998cc	0.049217984
144	0x3db8c5a7	0.09022074
145	0xbdab0a01	-0.083515175
146	0xbce411a2	-0.02784044
147	0x3c5938ac	0.0132581405
148	0x3d6954c0	0.05696559
149	0x3c9c49de	0.019078191
150	0xbd803167	-0.06259423
151	0xbe0b37e7	-0.13595544
152	0xbcac6865	-0.021045873
153	0xbd083e3a	-0.03326247
154	0xbe2412cf	-0.160228
155	0xbdb8daa5	-0.09026078
156	0xbd989d99	-0.07451934
157	0x3d891c8b	0.06694897
158	0x3e0ee438	0.13954246
159	0xbd90a43b	-0.070625745
160	0x3db75967	0.08952599
161	0x3d56bb08	0.05242446
162	0xbbd67e22	-0.006545798
163	0x3d30c7d9	0.04315934
164	0xbd8befcb	-0.06832846
165	0xbd446b4e	-0.047953896
166	0x3d13515b	0.03596626
167	0x3d110247	0.035402562
168	0x3e87307f	0.26404187
169	0x3caf3a5c	0.021390133
170	0x3e9720a0	0.29517078
171	0x3eaddcd8	0.33957553
172	0x3dd0ecb4	0.102013975
173	0x3beaee66	0.0071695326
174	0x3cf8f6e9	0.030391173
175	0xbbffec29	-0.007810135
176	0x3ebe8ffe	0.37219232
177	0xbdf73785	-0.120711364
178	0xbe043879	-0.12912168
179	0x3d493788	0.049125224
180	0xbdef7b34	-0.11693421
181	0xbcbc797e	-0.02300715
182	0xbc810216	-0.015748065
183	0x3d4be137	0.04977533
184	0x3d709c60	0.05874288
185	0x3da6b466	0.08139877
186	0xbdcd5882	-0.10026647
187	0xbdf7dc15	-0.12102524
188	0x3d16d084	0.03681995
189	0xbd72b5b2	-0.05925531
190	0x3dc864dc	0.097848624
191	0x3dad6901	0.084672935
192	0x3ce72b02	0.02821875
193	0xbda54b98	-0.08071059
194	0x3c93663b	0.017993083
195	0xbd8f7625	-0.07004956
196	0x3bcb92be	0.0062125614
197	0x3d1b0060	0.037842155
198	0x3d093577	0.033498254
199	0xbdbe45de	-0.0929067
200	0x3c17f740	0.009275258
201	0x3df885d6	0.12134902
202	0x3de2ba45	0.11070684
203	0xbc9aa7d5	-0.018878857
204	0x3cbb3d91	0.022856506
205	0xbdc58462	-0.09644391
206	0xbdebbe57	-0.11510914
207	0x3db93114	0.09042564
208	0xbd655d26	-0.055997036
209	0x3d56f1d6	0.052476726
210	0xbe07f89b	-0.13278429
211	0x3d8ceea6	0.06881456
212	0xbc8bb169	-0.01705237
213	0x3dd546c0	0.10413885
214	0x3d88e669	0.06684572
215	0x3d2fc82b	0.042915504
216	0xbc522bcc	-0.012827825
217	0x3c7fe7cc	0.0156192295
218	0x3dac1436	0.084022924
219	0xbd0b0453	-0.03393967
220	0x3d45cdda	0.04829202
221	0xbdbdf757	-0.09275692
222	0x3c8417c0	0.016124606
223	0x3df35ee3	0.118833326
224	0xbd93f724	-0.07224873
225	0xbd5ff4df	-0.054676887
226	0xbdf47e25	-0.11938123
227	0x3db56221	0.08856607
228	0x3d10ad28	0.035321385
229	0xbdef68a4	-0.116898805
230	0xbd2d409d	-0.04229795
231	0x3d473248	0.048631936
232	0xbd9d4413	-0.07679
233	0xbc12abb4	-0.00895207
234	0xbcb40878	-0.021976694
235	0xbd487a68	-0.04894486
236	0xbde2d084	-0.110749274
237	0xbe0c650e	-0.13710424
238	0x3d725344	0.05916144
239	0xbd2e916d	-0.042619158
240	0x3dc0e88d	0.094193555
241	0xbd756848	-0.059913903
242	0x3d9ee42d	0.07758365
243	0xbdd6524b	-0.10464915
244	0x3d6efd04	0.058346763
245	0x3dd9a326	0.10626821
246	0xbca44420	-0.020052016
247	0xbcf2df9f	-0.029647646
248	0x3db5b78f	0.08872902
249	0xbde722e5	-0.112859525
250	0xbe06115e	-0.13092563
251	0xbccb2040	-0.024795651
252	0x3c8c6d0f	0.017141847
253	0x3d945e7e	0.072445855
254	0x3db6fdc9	0.089351244
255	0xbdd0c7ce	-0.1019436

net.0.bias f4 [128]
0	0x3e04e658	0.12978494
1	0xbe11f879	-0.14254941
2	0xbd2a3737	-0.041556563
3	0x3beb91eb	0.0071890256
4	0xbd229a70	-0.039698064
5	0x3d04eb56	0.032450996
6	0xbe015f3a	-0.12633982
7	0xba8a7d88	-0.0010565976
8	0xbd74dc1a	-0.059780218
9	0x3da33526	0.07969122
10	0x3e405778	0.18783367
11	0xbdc8fa59	-0.09813375
12	0xbd316a83	-0.043314468
13	0xbe0d029c	-0.13770527
14	0x3e0d086e	0.13772747
15	0xbcade2da	-0.021226335
16	0x3de6343c	0.11240432
17	0xbd8bf3c3	-0.06833603
18	0xbdbb01ff	-0.0913124
19	0x3e3ab9ad	0.18234892
20	0x3d9c34d3	0.07627263
21	0x3d65d9a4	0.05611576
22	0x3cd19693	0.025584495
23	0x3c173ba9	0.009230533
24	0x3e00707e	0.12542912
25	0xbdf3f248	-0.11911446
26	0x3e1d030c	0.15333194
27	0x3da145d2	0.07874645
28	0x3c514da0	0.012774855
29	0xbdffc654	-0.12489
30	0xbe7a15d7	-0.24422394
31	0x3d639548	0.055562288
32	0xbd829761	-0.063765295
33	0xbe37f346	-0.17963895
34	0xbdb38259	-0.08765096
35	0xbccef6ed	-0.025264228
36	0x3d3c3664	0.04595031
37	0xbe4ab39a	-0.19795075
38	0xbe87ae54	-0.2650019
39	0x3d9a127f	0.07523059
40	0xbdeb980b	-0.11503609
41	0x3b5e53c2	0.0033924435
42	0xbe1c578d	-0.15267773
43	0xbca9c9d9	-0.020726131
44	0xbe51e4c1	-0.20497419
45	0x3ded7490	0.11594498
46	0x3cca0511	0.024660619
47	0xbd804317	-0.06262796
48	0x3e3c0864	0.18362576
49	0xbd7833e3	-0.060596358
50	0x3d42a8bd	0.047524203
51	0xbddaf77c	-0.10691735
52	0x3d8e0da4	0.069361955
53	0x3d690614	0.056890562
54	0xbd063f93	-0.032775473
55	0x3dd5f619	0.1044733
56	0x3e452b12	0.19254711
57	0x3dc51b29	0.09624321
58	0x3e142838	0.14468467
59	0x3d0f4f7e	0.03498792
60	0xbd1686f5	-0.0367498
61	0x3d901254	0.07034746
62	0x3d439294	0.04774721
63	0xbe430c4e	-0.19047663
64	0xbc509da2	-0.012732895
65	0x3d8e7ee3	0.069577955
66	0x3d2430f1	0.040085737
67	0xbdca0135	-0.098635115
68	0xbcb8c648	-0.022555485
69	0x3db5bfbc	0.08874461
70	0x3e0fd1f5	0.14044936
71	0x3df21ac7	0.118215136
72	0xbd9d09ac	-0.076678604
73	0xbe7a1b17	-0.24424396
74	0x3e127e11	0.14305903
75	0x3d7e609e	0.06210386
76	0xbd88c9d4	-0.06679121
77	0x3e711210	0.23542047
78	0xbdf4cc9d	-0.119530894
79	0x3c12ed0c	0.008967649
80	0x3e1177ce	0.14205858
81	0xbd1d8625	-0.03845801
82	0xbc1ea7a1	-0.0096835205
83	0xbe6d9540	-0.23201466
84	0xbdcd1296	-0.100133106
85	0x3bc3a593	0.0059706657
86	0x3e1b6ddf	0.15178631
87	0x3de506cd	0.11182938
88	0xbd361e24	-0.044462338
89	0xbdb5fa3f	-0.08885621
90	0xbc84983c	-0.016185872
91	0xbe12f507	-0.14351283
92	0xbd4974ed	-0.049183775
93	0x3c7f9d26	0.015601432
94	0xbe1620cf	-0.14660953
95	0x3cc60b35	0.024175266
96	0xb9d41d5b	-0.00040457663
97	0xbcb37c5b	-0.021909883
98	0x3d6c72b7	0.057726588
99	0xbe1ff69f	-0.15621422
100	0x3dcf05ce	0.10108529
101	0x3d6b6b3e	0.05747532
102	0xbdd0a383	-0.101874374
103	0xbbb5dbcc	-0.0055498835
104	0x3e619ce2	0.22032502
105	0xbc39fc36	-0.011351636
106	0xbe38c544	-0.18044001
107	0x3c0d8cc5	0.008639519
108	0xbd677417	-0.056507196
109	0x3c89c51e	0.016817626
110	0x3e53272d	0.20620413
111	0xbe0ef044	-0.13958842
112	0x3dedac27	0.11605101
113	0xbdd70d66	-0.105006024
114	0xbc77e83c	-0.015131053
115	0x3c6cb0ac	0.014446419
116	0xbe062d83	-0.13103299
117	0x3cb94f35	0.022620777
118	0xbdff1245	-0.124546565
119	0x3d43869c	0.047735795
120	0x3e5d3270	0.21601272
121	0x3e218619	0.1577381
122	0x3de5e8fe	0.1122608
123	0xba668d42	-0.0008794853
124	0xbd7b5b39	-0.061366294
125	0x3e1189d1	0.14212729
126	0x3c65ff57	0.014037929
127	0x3da5cb78	0.08095449

net.3.weight f4 [64, 128]
0	0xbd5bb9d3	-0.053644013
1	0xbd8a91f4	-0.067661196
2	0x3d695030	0.05696124
3	0xbc7a36e9	-0.015271881
4	0x3d618d30	0.055066288
5	0xbd9e26b0	-0.07722223
6	0xbd87e530	-0.06635511
7	0xbd440ffe	-0.047866814
8	0x3d9cce72	0.07656564
9	0xbdaa6e04	-0.08321765
10	0x3c621a23	0.013800177
11	0x3ccdc567	0.025118543
12	0x3c80b5d2	0.015711699
13	0xbd5e6a24	-0.054300442
14	0xbdce068f	-0.10059845
15	0xbdbd6fc3	-0.092498325
16	0x3d671903	0.056420337
17	0xbb37191d	-0.0027938553
18	0x3cff8874	0.031192996
19	0xbd598ab2	-0.053110786
20	0xbd8fce74	-0.070218
21	0xbd367e95	-0.04455431
22	0xbd8cfb29	-0.068838425
23	0x3da6d3c7	0.08145862
24	0xbd161e69	-0.036650095
25	0xbc5b7867	-0.013395405
26	0x3d5b7f7d	0.05358838
27	0x3d67e722	0.05661691
28	0xbdb29b8a	-0.08721073
29	0xbcca24ab	-0.024675688
30	0xbd999487	-0.074990325
31	0x3d1cf116	0.038315855
32	0xbc0ba7ff	-0.00852394
33	0xbd6f3abb	-0.05840562
34	0x3ce879bb	0.028378358
35	0x3d4d8f3b	0.050185423
36	0x3d3a908f	0.045548018
37	0xbdabea3c	-0.08394286
38	0xbd837b76	-0.06420033
39	0x3da44ce7	0.080224805
40	0x3d9a2d2f	0.07528149
41	0xbd060149	-0.03271607
42	0xbc99fa42	-0.01879609
43	0xbd9ac79d	-0.075576045
44	0xbc27936b	-0.010228018
45	0xbcaa4105	-0.020782957
46	0x3c12cac7	0.008959479
47	0xbd48ae58	-0.048994392
48	0xbd50f597	-0.051015463
49	0x3c80c8cd	0.01572075
50	0xbd3702a5	-0.044680256
51	0xbd64fa00	-0.05590248
52	0x3c15c573	0.009141314
53	0x3c9f5bf1	0.01945302
54	0xbcc0cb07	-0.023534311
55	0xbda6591d	-0.08122466
56	0x3c739bfe	0.014868734
57	0x3dc89881	0.09794713
58	0xbd94d7a6	-0.07267694
59	0xbdb40fed	-0.087921
60	0x3c98b69d	0.018641764
61	0x3b6352f1	0.0034686888
62	0xbd321b30	-0.04348296
63	0xbba433b3	-0.005011046
64	0x3d8ed382	0.06973936
65	0x3d241d4b	0.040067
66	0xbd19c979	-0.037545655
67	0xbd8edc63	-0.06975629
68	0x3c93fe79	0.018065678
69	0xbdad759c	-0.08469698
70	0x3cd67b91	0.026181968
71	0xbda8885c	-0.082291335
72	0x3c97734a	0.018487591
73	0xbd815d5d	-0.06316636
74	0xbcfa015f	-0.030518232
75	0x3c8ca8ea	0.017170388
76	0x376f3b4c	1.4259316e-05
77	0xbe006e02	-0.12541965
78	0xb9d15633	-0.0003992781
79	0x3caba738	0.02095376
80	0x3d11b946	0.03557708
81	0xbdbc7511	-0.09202016
82	0xbd2bef28	-0.041976124
83	0x3d5a9b1d	0.053370584
84	0xbd931b2f	-0.07182919
85	0xbd7acc1c	-0.06122981
86	0x3d4f4596	0.05060347
87	0xbda3374b	-0.07969531
88	0xbd46e69a	-0.048559763
89	0x3be449dd	0.006966813
90	0xbd0fec12	-0.035137244
91	0x3b8e6a55	0.004346172
92	0xbd2dc3cb	-0.04242305
93	0xbc066745	-0.008203332
94	0x3cdfc955	0.027317682
95	0x3d65c105	0.05609228
96	0x3b5b6f01	0.0033482912
97	0xbcebb3f7	-0.028772337
98	0x3d94f203	0.072727226
99	0xbd91615a	-0.070986465
100	0x3d42d135	0.047562797
101	0xbd32521f	-0.043535348
102	0x3d918160	0.071047544
103	0x3d06cd0c	0.03291039
104	0x3ca160f3	0.01969955
105	0xbcd9d775	-0.026591996
106	0x3cd0c20b	0.025483152
107	0xbd07d51a	-0.033162214
108	0x3cc4fee4	0.024047323
109	0x3d2c6275	0.042086083
110	0xbd6787f4	-0.05652614
111	0xbb82b45d	-0.003988786
112	0x3d6b8db1	0.057508174
113	0xbda75177	-0.08169835
114	0x3d6ea117	0.058259096
115	0x3ca6cc12	0.02036098
116	0xbdc43e1b	-0.09582158
117	0x3d77fcfb	0.060543995
118	0x3cc1bd0d	0.023649717
119	0xbdb14793	-0.0865623
120	0xbca697ef	-0.02033612
121	0xbc2a4d81	-0.010394455
122	0xbd56bf4b	-0.052428525
123	0xbd7dec0c	-0.06199269
124	0xbc10cc76	-0.00883781
125	0x3d8c17c4	0.068404704
126	0x3c8d0ecc	0.01721897
127	0xbda3c618	-0.07996768
128	0xbbd3f3c5	-0.0064682686
129	0xbc54a481	-0.012978674
130	0xbd06e73e	-0.032935373
131	0x3d9b807c	0.07592866
132	0xbd163fb3	-0.036681842
133	0x3d9a58a5	0.07536439
134	0xbd85d563	-0.06534841
135	0x3ce9948a	0.028513212
136	0x3d24fdcc	0.040281102
137	0xbb7e4614	-0.0038799094
138	0x3d5ed9bb	0.054406863
139	0x3d97eb8d	0.074179746
140	0xbda16778	-0.07881063
141	0x3d956328	0.07294303
142	0xbdcd8e55	-0.10036913
143	0xbc80cf41	-0.015723826
144	0xbd490fb7	-0.049087252
145	0xbc93d3cb	-0.018045327
146	0xbcd8f079	-0.026481854
147	0xbc3d0f38	-0.011539273
148	0x3d341987	0.043969657
149	0xbd1b07f3	-0.037849378
150	0x3db55e2f	0.08855855
151	0xbc22ed19	-0.009944224
152	0x3cb6c938	0.022312745
153	0xbd8630b5	-0.06552259
154	0xbdbee192	-0.09320368
155	0x3cd60121	0.026123585
156	0xbdcffb1c	-0.10155317
157	0xbdb4d9d6	-0.088306114
158	0x3c0be569	0.008538582
159	0xbd2e2997	-0.042520132
160	0xbdc2b137	-0.09506457
161	0xbd6d7b99	-0.0579792
162	0x3d5d14fa	0.053975083
163	0xbc951edb	-0.01820319
164	0x3c49a9d7	0.012308559
165	0xbd9caf34	-0.07650605
166	0xbd931ba8	-0.071830094
167	0x3d05764c	0.03258352
168	0xbd030d82	-0.031995304
169	0xbcade18f	-0.021225719
170	0x3d81147e	0.06302737
171	0x3da01177	0.07815831
172	0x3c319561	0.010838837
173	0xbd1fcf94	-0.03901632
174	0xbc24cc51	-0.010058478
175	0xbcd580c6	-0.02606238
176	0xbc9e5a63	-0.01933021
177	0x3d12751c	0.035756215
178	0x3d1437f4	0.036186174
179	0xbcf035e1	-0.029322566
180	0xbda3090d	-0.07960711
181	0x3d935460	0.07193828
182	0xbcb105d3	-0.021609223
183	0xbc3a6fe8	-0.01137922
184	0x3c1a8b93	0.009432691
185	0x3cf06cfa	0.02934884
186	0x3db1171e	0.086469874
187	0x3d871c97	0.0659725
188	0x3cb01cec	0.021498166
189	0x3cc7e369	0.02440043
190	0x3d3ad184	0.045609966
191	0x3d184c43	0.037182104
192	0x3c324b17	0.010882161
193	0x3daef9bd	0.085437275
194	0x3d942562	0.07233693
195	0xbd396b3a	-0.045268275
196	0xbab86b38	-0.001407004
197	0x3d93fb9a	0.072257236
198	0xbd82e3b1	-0.06391085
199	0x3df46ec9	0.11935193
200	0xbd4e5c4b	-0.050380986
201	0xbd68eec0	-0.056868315
202	0x3d6d0083	0.057861816
203	0xbd832d4e	-0.064051256
204	0xbd67354f	-0.056447323
205	0xbdf025d8	-0.11725968
206	0x3d733f2d	0.05938642
207	0xbdaa8417	-0.083259754
208	0xbe1fce2f	-0.15605997
209	0x3d28b8fa	0.041192032
210	0xbb7b2f7a	-0.0038327859
211	0x38f72cc0	0.00011786213
212	0xbd88cd51	-0.06679786
213	0x3c9f0b74	0.019414641
214	0xbd9288ec	-0.07155022
215	0xbd2dcc15	-0.042430956
216	0x3d9be47d	0.0761194
217	0x3d4936d2	0.049124546
218	0x3cdea613	0.0271788
219	0xbd9e403e	-0.07727097
220	0xbd528d74	-0.05140443
221	0xbd86e0cf	-0.065858476
222	0xbd4c12de	-0.04982268
223	0xbdcf47e4	-0.10121134
224	0xbd80b553	-0.06284585
225	0x3b607451	0.0034249017
226	0xbd254aa5	-0.04035439
227	0xbd11e271	-0.035616342
228	0xbd860a40	-0.06544924
229	0x3c95f290	0.01830414
230	0xbceacd6a	-0.028662402
231	0x3d45c6f0	0.048285425
232	0xbd30a07e	-0.043121807
233	0x3d24e5a2	0.040258057
234	0xbc702d6d	-0.014659268
235	0x3c453eec	0.0120389275
236	0xbd145b89	-0.036220107
237	0x3dbce1bb	0.09222742
238	0xbd280f44	-0.041030183
239	0x39c578fa	0.00037664903
240	0x3d097d75	0.03356691
241	0x3d1ce158	0.038300842
242	0x3d847e20	0.06469369
243	0xbb900006	-0.004394534
244	0xbc3cc85a	-0.011522377
245	0xbd29d1a6	-0.041459702
246	0x3d697366	0.05699482
247	0x3db186be	0.08668278
248	0xbd1acd11	-0.037793223
249	0x3d5cec7a	0.05393646
250	0x3ceba021	0.028762879
251	0x3d3410f2	0.043961473
252	0xbcb3d2cb	-0.0219511
253	0xbce30464	-0.027712055
254	0x3d63beb2	0.055601783
255	0x3daf52e8	0.08560735

net.3.bias f4 [64]
0	0x3d38edb8	0.04514858
1	0xbd3d73db	-0.046253067
2	0x3cfcff30	0.030883402
3	0x3e1b974d	0.15194435
4	0xbdee1a9c	-0.11626169
5	0x3d7c97a3	0.06166805
6	0xbbaa2167	-0.00519197
7	0x3dd9d7db	0.10636874
8	0x3db61e51	0.08892501
9	0x3e163ea4	0.14672333
10	0xbbb77b3a	-0.0055994065
11	0x3d2142b8	0.03937027
12	0x3d8a7a11	0.067615636
13	0x3e25c4b2	0.16188315
14	0x3e104cab	0.14091747
15	0x3e0bfb7e	0.13670155
16	0x3e0ae038	0.13562095
17	0x3d11735a	0.0355104
18	0x3d26b473	0.040699434
19	0x3c7c27b3	0.015390324
20	0x3cf60948	0.030033723
21	0x3cfbeaeb	0.030751666
22	0x3bda9774	0.0066708867
23	0x3bf106c6	0.007355544
24	0x3db4cb28	0.088278115
25	0xbdde8b05	-0.108663596
26	0x3df9cdb8	0.12197441
27	0x3dd6265e	0.10456537
28	0xbdd05b0f	-0.10173618
29	0xbcf08a2a	-0.029362757
30	0xbd8af302	-0.06784631
31	0x3dfedd36	0.124445364
32	0x3d19a2df	0.03750884
33	0x3d1f05ff	0.038824078
34	0x3dc9a5db	0.098460875
35	0x3d3f7c5f	0.04674947
36	0x3c0057c1	0.007833422
37	0x3ce509a1	0.027958693
38	0x3e2d8c7f	0.16948126
39	0xbd84a9d2	-0.06477703
40	0xbccdf72b	-0.025142273
41	0x3d8ad3f7	0.0677871
42	0xbc88670b	-0.016650697
43	0xbe05e726	-0.13076457
44	0x3da5cd07	0.080957465
45	0xbd82f676	-0.06394665
46	0x3db878ab	0.090073906
47	0x3de7df96	0.113219425
48	0x3e106401	0.14100648
49	0xbb4db519	-0.003138846
50	0x3d84ca72	0.06483926
51	0x3d65c4ba	0.056095816
52	0x3b74c38e	0.0037348005
53	0x3d6eb39b	0.058276754
54	0xbdcddad1	-0.100515015
55	0x3e1242c2	0.14283279
56	0xbcc9da89	-0.024640338
57	0x3d39ee77	0.045393433
58	0x3e1794ff	0.14802931
59	0xbc81c2df	-0.015839992
60	0x3d75d0ff	0.060013767
61	0xbcf66de2	-0.030081693
62	0xbdab0fb4	-0.083526045
63	0x3e1c775c	0.15279907

net.6.weight f4 [1, 64]
0	0x3d2f35cc	0.042775914
1	0x3cf5c3d7	0.03000061
2	0xbd4bd824	-0.049766675
3	0xbd82cd73	-0.063868426
4	0x3dae25c6	0.085032985
5	0x3d072cd1	0.033001725
6	0x3d1726fb	0.03690241
7	0xbcec1d37	-0.028822524
8	0xbdc1b6f6	-0.09458725
9	0xbcdd2f75	-0.027000168
10	0xbd279f09	-0.040923152
11	0x3cf4898a	0.02985074
12	0xbd73e276	-0.05954214
13	0x3e102d4a	0.14079776
14	0xbdc9957d	-0.09842966
15	0xbd82d08d	-0.06387434
16	0xbe1228dc	-0.14273399
17	0x3d267d94	0.040647104
18	0xbdddfde8	-0.108394444
19	0x3d8d5654	0.069012314
20	0x3c88f5a2	0.01671869
21	0x3b7a4abb	0.0038191515
22	0x3dd03e94	0.10168186
23	0x3ce68a82	0.028142218
24	0x3d308013	0.04309089
25	0x3c745eb0	0.014915153
26	0xbcac3d88	-0.021025434
27	0xbcbb7d95	-0.02288703
28	0x3dcae3b7	0.099067144
29	0x3da4cb43	0.080465816
30	0x3d94e588	0.07270342
31	0x3c92f837	0.017940624
32	0xbde1341d	-0.10996268
33	0xbdb6a003	-0.089172386
34	0xbdbfe5f3	-0.09370031
35	0xbcef7508	-0.02923061
36	0xbcf7fb08	-0.030271068
37	0x3db84455	0.08997408
38	0xbd993d47	-0.07482391
39	0xba3dfd18	-0.0007247492
40	0xbc8f8234	-0.01751814
41	0xbd3b5490	-0.045734942
42	0x3c5f3071	0.013622389
43	0x3c872240	0.016495824
44	0xbd328de7	-0.04359236
45	0x3ced7e6c	0.028990947
46	0xbc3e4cda	-0.0116150025
47	0x3e05d959	0.13071193
48	0xbcdb09a7	-0.026738001
49	0x3d51a408	0.051181823
50	0xbe11ddfe	-0.1424484
51	0x3cd78242	0.026307229
52	0x3db98a71	0.09059609
53	0x3df7c8c0	0.12098837
54	0x3d37610c	0.044770285
55	0xbd85ae55	-0.06527392
56	0x3c717699	0.014737749
57	0xbbcab43f	-0.006186038
58	0xbdf914e1	-0.121621855
59	0xbd4462c3	-0.04794575
60	0xbbba01e5	-0.0056764954
61	0x3c8d0c80	0.017217875
62	0xbdaab83c	-0.08335921
63	0xbd26ca02	-0.040719993

exp_avg f4 [128, 56]
0	0xb9430d75	-0.00018601662
1	0xbb1116c4	-0.0022138814
2	0xb8e2adbb	-0.000108088796
3	0xb91e8874	-0.00015118887
4	0x00000000	0.0
5	0xb9769f62	-0.00023519763
6	0xb97e80d9	-0.00024271327
7	0xb9389d8f	-0.00017606303
8	0x39054887	0.00012710887
9	0xb812140a	-3.4827775e-05
10	0xb8b6a3d7	-8.708954e-05
11	0x374a2c41	1.2050442e-05
12	0xb5449f7e	-7.324778e-07
13	0x3891c2e7	6.950442e-05
14	0x38f0196e	0.000114488284
15	0xb6836e70	-3.916961e-06
16	0x00000000	0.0
17	0xb96c5405	-0.00022538014
18	0x00000000	0.0
19	0x34683115	2.162454e-07
20	0x9559870f	-4.3929343e-26
21	0x388d54da	6.739209e-05
22	0x00000000	0.0
23	0xb9c1d8ed	-0.0003697345
24	0x38f0196e	0.000114488284
25	0xb8b6a3d7	-8.708954e-05
26	0x374a2c41	1.2050442e-05
27	0x00000000	0.0
28	0x38d7112b	0.00010255197
29	0xb5449f7e	-7.324778e-07
30	0x388d557a	6.739325e-05
31	0x00000000	0.0
32	0xb619ae01	-2.290006e-06
33	0x934a959e	-2.5569751e-27
34	0xb6836e70	-3.916961e-06
35	0x00000000	0.0
36	0xb0a084eb	-1.167931e-09
37	0xb29f9412	-1.857737e-08
38	0xb81493fb	-3.5423767e-05
39	0xb7c43c89	-2.339321e-05
40	0x39139f4c	0.00014078355
41	0x347c2390	2.3482266e-07
42	0x00000000	0.0
43	0xb80a9c85	-3.3047534e-05
44	0x9559870f	-4.3929343e-26
45	0x00000000	0.0
46	0xb9c1d8ed	-0.0003697345
47	0xb99ff005	-0.00030505672
48	0xb9936e09	-0.00028120007
49	0xb9001e63	-0.00012218351
50	0xb9763723	-0.00023480928
51	0x39190a98	0.00014595164
52	0x37d08578	2.4857683e-05
53	0x00000000	0.0
54	0x38839bb5	6.2755695e-05
55	0xb79bd006	-1.8574308e-05
56	0x37b46970	2.150677e-05
57	0x3aa1d1da	0.0012345866
58	0x37e31b65	2.7073265e-05
59	0x359dd7b4	1.1760189e-06
60	0x00000000	0.0
61	0x37e96659	2.7823424e-05
62	0x37e25cf5	2.6984586e-05
63	0x37b1c4cc	2.1191685e-05
64	0xb5495e43	-7.5015504e-07
65	0x37aa8bf5	2.0330752e-05
66	0xaaa05418	-2.848006e-13
67	0xaa6965e7	-2.0729912e-13
68	0x374903fa	1.19814595e-05
69	0x2f53ef49	1.927535e-10
70	0x2c4c2a7d	2.901373e-12
71	0x23b3f044	1.9508975e-17
72	0x3710e84e	8.6371565e-06
73	0x2b2e251d	6.1868723e-13
74	0x2a2ffb47	1.5630302e-13
75	0x298145fd	5.740892e-14
76	0xa22972db	-2.2964575e-18
77	0xa309aad5	-7.46296e-18
78	0x37e4c41f	2.7271044e-05
79	0x9f50f132	-4.4245225e-20
80	0xaa9110dc	-2.5768873e-13
81	0xaaa05418	-2.848006e-13
82	0xaa6965e7	-2.0729912e-13
83	0xb483eae8	-2.4571568e-07
84	0x292fea9a	3.906129e-14
85	0x374903fa	1.19814595e-05
86	0x239d8cc0	1.7081584e-17
87	0x369af4b0	4.618043e-06
88	0x270c420d	1.946471e-15
89	0x2c5e4c99	3.1590618e-12
90	0x23b3f044	1.9508975e-17
91	0x368f1a9b	4.2648294e-06
92	0xa3e26228	-2.454454e-17
93	0xa5906460	-2.5048035e-16
94	0xa364af52	-1.239703e-17
95	0x2a85564c	2.3685426e-13
96	0xa4dacba4	-9.488741e-17
97	0x2981d665	5.765942e-14
98	0x2a2ffb47	1.5630302e-13
99	0x2f53e44f	1.927145e-10
100	0xa22972db	-2.2964575e-18
101	0x37e4c41f	2.7271044e-05
102	0x9f50f132	-4.4245225e-20
103	0x2ad5ead9	3.799936e-13
104	0x2980cabe	5.719512e-14
105	0x2aad1041	3.0742252e-13
106	0x37e4bad3	2.7266715e-05
107	0x37acffdd	2.0623143e-05
108	0x1ea90150	1.7894114e-20
109	0xa940e415	-4.2830394e-14
110	0x29bd8fc7	8.4182275e-14
111	0xa515787a	-1.2964509e-16
112	0x392b2294	0.00016320712
113	0xbb153a54	-0.0022770362
114	0x3926ac25	0.00015895122
115	0xb804047c	-3.147543e-05
116	0x00000000	0.0
117	0x39484ff5	0.00019103273
118	0x39537a27	0.00020168033
119	0x393560af	0.00017297523
120	0xb8068f51	-3.2081563e-05
121	0x394c23b6	0.0001946826
122	0x38032a65	3.1272317e-05
123	0x38dafe3d	0.000104424056
124	0x37db5bb1	2.6149532e-05
125	0x38899cd3	6.56188e-05
126	0x38840995	6.296035e-05
127	0x3834c7cf	4.310143e-05
128	0x36e81d3e	6.917543e-06
129	0xb898d32f	-7.287261e-05
130	0x385617fb	5.104391e-05
131	0x3614568a	2.210409e-06
132	0x37e54225	2.7329728e-05
133	0x3773290b	1.4493485e-05
134	0x37f81c9f	2.9577232e-05
135	0x381b35cc	3.7004982e-05
136	0x37bf8d75	2.2834845e-05
137	0x38032a65	3.1272317e-05
138	0x38dafe3d	0.000104424056
139	0x36699284	3.480499e-06
140	0x388d5103	6.7384935e-05
141	0x37db5bb1	2.6149532e-05
142	0x3707180e	8.052228e-06
143	0x36bb4985	5.581593e-06
144	0x384daeb5	4.9038517e-05
145	0x38284c6d	4.01255e-05
146	0x3834c7cf	4.310143e-05
147	0xb60feb1c	-2.1445512e-06
148	0x36d821f6	6.441255e-06
149	0x344d714d	1.9133331e-07
150	0xb840724b	-4.588281e-05
151	0x38a19ecb	7.706656e-05
152	0xb770344f	-1.4317294e-05
153	0x36077f75	2.0190757e-06
154	0x385617fb	5.104391e-05
155	0xb5ed0c1c	-1.76614e-06
156	0x37e54225	2.7329728e-05
157	0x37f81c9f	2.9577232e-05
158	0x381b35cc	3.7004982e-05
159	0xb91184d1	-0.00013877756
160	0x385f8489	5.3290776e-05
161	0x390513d8	0.00012691261
162	0x398b0122	0.0002651299
163	0x3843c3b8	4.66739e-05
164	0x36967f9d	4.4852045e-06
165	0x36f510eb	7.3035385e-06
166	0xb897b99b	-7.234813e-05
167	0xb614c080	-2.2165768e-06
168	0xb996a94d	-0.00028736368
169	0x3d9acac9	0.075582094
170	0xb9e30b70	-0.00043305336
171	0xb9eb51a7	-0.0004488353
172	0x00000000	0.0
173	0x399b533c	0.00029625918
174	0x398fd188	0.00027431198
175	0x39878683	0.00025849426
176	0xba3f2f55	-0.0007293125
177	0x392950ab	0.00016147147
178	0x388fd0ae	6.857641e-05
179	0xb822e6fb	-3.8838927e-05
180	0x3989d7ec	0.0002629155
181	0x381bd727	3.7155256e-05
182	0x390950fa	0.00013095504
183	0x38d2cdc0	0.00010051904
184	0xb7e63e8f	-2.7447268e-05
185	0xb999bf1e	-0.00029324827
186	0x393e3b91	0.00018142002
187	0x379b758e	1.853218e-05
188	0xb82ebe75	-4.166221e-05
189	0x38545cb5	5.063108e-05
190	0xb833ed2e	-4.2897816e-05
191	0x3981b4c8	0.0002473949
192	0x38e4ca64	0.000109095854
193	0x388fd0ae	6.857641e-05
194	0xb822e6fb	-3.8838927e-05
195	0xb5656c39	-8.546663e-07
196	0xb2bd2e63	-2.202359e-08
197	0x3989d7ec	0.0002629155
198	0x37c6e912	2.3711971e-05
199	0x37c29c26	2.3199314e-05
200	0x38d50b1f	0.00010158703
201	0x37b75e2f	2.1859158e-05
202	0x38d2cdc0	0.00010051904
203	0xb850d7a9	-4.9791914e-05
204	0x37e1d059	2.691911e-05
205	0xb3edefd1	-1.1079795e-07
206	0x3775fd24	1.4662077e-05
207	0xba602998	-0.000855112
208	0x393ba39f	0.00017894663
209	0x379c637e	1.8642979e-05
210	0x393e3b91	0.00018142002
211	0x381beecf	3.7177288e-05
212	0xb82ebe75	-4.166221e-05
213	0xb833ed2e	-4.2897816e-05
214	0x3981b4c8	0.0002473949
215	0x398bcf94	0.00026666804
216	0x3872c665	5.7882065e-05
217	0xb91a1a8a	-0.00014696471
218	0x39d11b96	0.0003988414
219	0x39bc6b41	0.00035938065
220	0xb8ba3d6e	-8.880613e-05
221	0x37a46182	1.959573e-05
222	0xb894f169	-7.102156e-05
223	0x39032ca0	0.00012509758
224	0xb7318f81	-1.0583434e-05
225	0xb7622f85	-1.3481714e-05
226	0xb7318f6d	-1.0583416e-05
227	0xb750f641	-1.2455102e-05
228	0x00000000	0.0
229	0xb7614aeb	-1.3428488e-05
230	0xb7336160	-1.0691903e-05
231	0xb753bea0	-1.2620963e-05
232	0x363eedf8	2.8450722e-06
233	0x35fb35f5	1.8716661e-06
234	0x00000000	0.0
235	0x00000000	0.0
236	0x00000000	0.0
237	0x1a4b18aa	4.199934e-23
238	0xb7ec0f9e	-2.8140665e-05
239	0xb242f6cc	-1.1348401e-08
240	0x2e8fb55f	6.535105e-11
241	0x2fb50696	3.2928388e-10
242	0xb25d2979	-1.2873323e-08
243	0x00000000	0.0
244	0x00000000	0.0
245	0x3179edec	3.6369512e-09
246	0x00000000	0.0
247	0x141df93f	7.9756295e-27
248	0xb7ec0fa2	-2.8140672e-05
249	0x00000000	0.0
250	0x00000000	0.0
251	0x00000000	0.0
252	0x1a4b18aa	4.199934e-23
253	0x00000000	0.0
254	0x3179edec	3.6369512e-09
255	0x00000000	0.0

exp_avg_sq f4 [128, 56]
0	0x349c3b94	2.9100613e-07
1	0x36708676	3.5841053e-06
2	0x34955bbe	2.7820164e-07
3	0x3455bd6e	1.9906085e-07
4	0x00000000	0.0
5	0x344f3abd	1.9299746e-07
6	0x344e2284	1.9197802e-07
7	0x344c055b	1.9000929e-07
8	0x33948890	6.9166276e-08
9	0x33f41a98	1.1366973e-07
10	0x331e9867	3.692585e-08
11	0x3304bc19	3.090472e-08
12	0x30923c2a	1.0639998e-09
13	0x341810af	1.4162173e-07
14	0x32aff19d	2.0482554e-08
15	0x317c21df	3.669008e-09
16	0x00000000	0.0
17	0x34bb733d	3.491531e-07
18	0x00000000	0.0
19	0x32194a1d	8.9226235e-09
20	0x2f8ac042	2.523866e-10
21	0x3311f9f3	3.398777e-08
22	0x00000000	0.0
23	0x34930cda	2.7390234e-07
24	0x32afd11d	2.0467775e-08
25	0x331e9867	3.692585e-08
26	0x3304bc19	3.090472e-08
27	0x00000000	0.0
28	0x33ec8649	1.1014033e-07
29	0x30923c2a	1.0639998e-09
30	0x330640af	3.1258136e-08
31	0x00000000	0.0
32	0x322b9ef8	9.989655e-09
33	0x2d820834	1.4782932e-11
34	0x317c21df	3.669008e-09
35	0x00000000	0.0
36	0x313b943d	2.7296345e-09
37	0x304d64d4	7.472185e-10
38	0x33406291	4.479313e-08
39	0x33bce205	8.795545e-08
40	0x33a51851	7.6878344e-08
41	0x320c73cf	8.175404e-09
42	0x00000000	0.0
43	0x3310e6b8	3.373745e-08
44	0x2f8ac042	2.523866e-10
45	0x00000000	0.0
46	0x34930cda	2.7390234e-07
47	0x343b5874	1.7447911e-07
48	0x3409d4cf	1.2836539e-07
49	0x348e0938	2.645627e-07
50	0x33c23225	9.04295e-08
51	0x34ce74ea	3.8455556e-07
52	0x32b2bba8	2.0807263e-08
53	0x00000000	0.0
54	0x32ad0e13	2.0146251e-08
55	0x30eaedd1	1.7093332e-09
56	0x3307afc1	3.1591984e-08
57	0x3b867ebd	0.004104464
58	0x3311751f	3.3866964e-08
59	0x32d27866	2.4501968e-08
60	0x00000000	0.0
61	0x32a97ff7	1.9732381e-08
62	0x32ae6b3b	2.0305029e-08
63	0x32c36849	2.2748411e-08
64	0x31d610c3	6.2301253e-09
65	0x320e9db0	8.301342e-09
66	0x31c2c3c7	5.6684004e-09
67	0x31eb5fd5	6.850295e-09
68	0x30afcd6c	1.279131e-09
69	0x318d8dab	4.119746e-09
70	0x3223408f	9.502528e-09
71	0x2faa8814	3.101951e-10
72	0x313ca463	2.7451044e-09
73	0x334e8f5d	4.80935e-08
74	0x31286edf	2.451024e-09
75	0x316c53c6	3.439014e-09
76	0x2fde9ff0	4.0495207e-10
77	0x30c09355	1.4011713e-09
78	0x3102d26c	1.90371e-09
79	0x2ebaa396	8.4873594e-11
80	0x31ac1171	5.0078417e-09
81	0x31c2c3c7	5.6684004e-09
82	0x31eb5fd5	6.850295e-09
83	0x2f8799cd	2.466564e-10
84	0x30e3ffc5	1.6589118e-09
85	0x30afcd6c	1.279131e-09
86	0x305c5dda	8.0168905e-10
87	0x2ec6a0f0	9.032586e-11
88	0x30fcd51d	1.8395984e-09
89	0x31b2d508	5.2047007e-09
90	0x2faa8814	3.101951e-10
91	0x3122d01c	2.36924e-09
92	0x303e5784	6.9245965e-10
93	0x2fbe0a41	3.4568085e-10
94	0x31067153	1.9563984e-09
95	0x3261f8b7	1.3153275e-08
96	0x3089df0c	1.0031456e-09
97	0x3151f331	3.0551741e-09
98	0x31286edf	2.451024e-09
99	0x313e2443	2.7669251e-09
100	0x2fde9ff0	4.0495207e-10
101	0x3102d26c	1.90371e-09
102	0x2ebaa396	8.4873594e-11
103	0x32d18737	2.439229e-08
104	0x3141f449	2.8224056e-09
105	0x321d46da	9.1547125e-09
106	0x32678d0e	1.3478042e-08
107	0x332c15f1	4.0066826e-08
108	0x2f8cbf28	2.5601676e-10
109	0x3114c9eb	2.1651612e-09
110	0x32919c79	1.6951377e-08
111	0x2eae6cca	7.931929e-11
112	0x347ca6f0	2.353006e-07
113	0x3bd495e2	0.006487594
114	0x347e4495	2.3680543e-07
115	0x349d4fab	2.9301495e-07
116	0x00000000	0.0
117	0x34877f11	2.5238162e-07
118	0x34869e0a	2.5074434e-07
119	0x34802448	2.3868256e-07
120	0x33d09547	9.712908e-08
121	0x33e01a7f	1.04356324e-07
122	0x335239d3	4.8947026e-08
123	0x33ac8379	8.033289e-08
124	0x323dd040	1.10485985e-08
125	0x33569d1a	4.996864e-08
126	0x33bf8815	8.918884e-08
127	0x3148a2b8	2.9196325e-09
128	0x323a309f	1.083768e-08
129	0x351a5c28	5.7503576e-07
130	0x3253c09a	1.2325609e-08
131	0x3278501d	1.4453716e-08
132	0x328d1b31	1.6426926e-08
133	0x32be7b15	2.2174882e-08
134	0x315bbf8c	3.1977576e-09
135	0x3360f4ab	5.237659e-08
136	0x337bf420	5.8662522e-08
137	0x335239d3	4.8947026e-08
138	0x33ac8379	8.033289e-08
139	0x2fc62c7e	3.6047604e-10
140	0x332c6914	4.014244e-08
141	0x323dd040	1.10485985e-08
142	0x32766697	1.4342411e-08
143	0x2fc0eb7f	3.5091927e-10
144	0x322019c1	9.3190815e-09
145	0x32e4cc30	2.6635547e-08
146	0x3148a2b8	2.9196325e-09
147	0x322cf2a8	1.0066891e-08
148	0x320bdf8f	8.141696e-09
149	0x3172245c	3.5236303e-09
150	0x330ca928	3.2750137e-08
151	0x34403262	1.7899723e-07
152	0x3343f969	4.5628813e-08
153	0x3237c057	1.0695735e-08
154	0x3253c09a	1.2325609e-08
155	0x3277da92	1.4426989e-08
156	0x328d1b31	1.6426926e-08
157	0x315bbf8c	3.1977576e-09
158	0x3360f4ab	5.237659e-08
159	0x34959ef7	2.7869075e-07
160	0x330d950e	3.2964685e-08
161	0x34203fb6	1.4924339e-07
162	0x33e4fbfd	1.0662914e-07
163	0x353c5b77	7.0168556e-07
164	0x31c4faf7	5.732882e-09
165	0x323274bf	1.0387509e-08
166	0x330dd196	3.3019738e-08
167	0x31259fe6	2.4101552e-09
168	0x3584ece4	9.903711e-07
169	0x3c1d8629	0.009614506
170	0x358e83b7	1.0618159e-06
171	0x358afe98	1.0355898e-06
172	0x00000000	0.0
173	0x356ea55d	8.8902544e-07
174	0x356a0b8c	8.7188596e-07
175	0x35584c55	8.057735e-07
176	0x348d55be	2.6325682e-07
177	0x34a87c8c	3.1383058e-07
178	0x33d98747	1.0129457e-07
179	0x34856e41	2.48534e-07
180	0x3343e020	4.5605816e-08
181	0x3447a71c	1.8594113e-07
182	0x348f913b	2.6741495e-07
183	0x32692db8	1.357278e-08
184	0x32f03ffc	2.7968774e-08
185	0x36151d03	2.2219617e-06
186	0x3319e6db	3.583305e-08
187	0x333c3e7f	4.3829e-08
188	0x3342304f	4.521308e-08
189	0x33489bb4	4.670774e-08
190	0x3220eae6	9.3666355e-09
191	0x347eaa83	2.3717625e-07
192	0x34392a31	1.7244817e-07
193	0x33d98747	1.0129457e-07
194	0x34856e41	2.48534e-07
195	0x30b8ef83	1.3455835e-09
196	0x342b84cd	1.5973929e-07
197	0x3343e020	4.5605816e-08
198	0x33446e5e	4.5735185e-08
199	0x314290f1	2.8313105e-09
200	0x32ad5c48	2.0181815e-08
201	0x3397da4f	7.0711955e-08
202	0x32692db8	1.357278e-08
203	0x32c63e63	2.3078604e-08
204	0x326c89a9	1.3768308e-08
205	0x31c2cb19	5.6692326e-09
206	0x340d6ba7	1.3170812e-07
207	0x3548a62e	7.474763e-07
208	0x3422236c	1.5100312e-07
209	0x331ccaf4	3.6506165e-08
210	0x3319e6db	3.583305e-08
211	0x332d27fd	4.031607e-08
212	0x3342304f	4.521308e-08
213	0x3220eae6	9.3666355e-09
214	0x347eaa83	2.3717625e-07
215	0x359260df	1.0906041e-06
216	0x340b9a3b	1.3001493e-07
217	0x352ef3e3	6.5174953e-07
218	0x34aafa8b	3.1847262e-07
219	0x362fd411	2.620047e-06
220	0x33218815	3.76095e-08
221	0x32bd6d74	2.205227e-08
222	0x339a59a6	7.187491e-08
223	0x3240afa8	1.12158105e-08
224	0x30aba389	1.2488367e-09
225	0x32d30005	2.4563642e-08
226	0x30afe5a9	1.2798199e-09
227	0x3165e504	3.3454066e-09
228	0x00000000	0.0
229	0x3129e6c2	2.4723907e-09
230	0x3116ad80	2.1926496e-09
231	0x311f4c15	2.3180793e-09
232	0x30c14de7	1.4064739e-09
233	0x311aed69	2.2544902e-09
234	0x00000000	0.0
235	0x00000000	0.0
236	0x00000000	0.0
237	0x2f8bd4e0	2.543521e-10
238	0x31a181dd	4.7004804e-09
239	0x2f920865	2.656321e-10
240	0x2dd76c4e	2.4490767e-11
241	0x31812335	3.7583967e-09
242	0x30a20c11	1.1790481e-09
243	0x00000000	0.0
244	0x00000000	0.0
245	0x30884cef	9.917168e-10
246	0x00000000	0.0
247	0x2e11b992	3.3134002e-11
248	0x319dd368	4.5933355e-09
249	0x00000000	0.0
250	0x00000000	0.0
251	0x00000000	0.0
252	0x2f8bd4e0	2.543521e-10
253	0x00000000	0.0
254	0x3057c8b4	7.850176e-10
255	0x00000000	0.0

exp_avg f4 [128]
0	0xb9dde139	-0.0004232021
1	0x3848dd58	4.788986e-05
2	0x39e10a70	0.0004292312
3	0x3a2b7189	0.00065400504
4	0xb7ec3af9	-2.8160854e-05
5	0x3882dd14	6.240062e-05
6	0xb8ac5f38	-8.219335e-05
7	0xb6c47616	-5.855002e-06
8	0xb97601bf	-0.00023461039
9	0xba3efa4c	-0.0007285222
10	0xbaeb1169	-0.0017934266
11	0x362447ed	2.447977e-06
12	0x376a0c67	1.39503745e-05
13	0xb6bd96a8	-5.6501776e-06
14	0xbb672fbe	-0.003527626
15	0xba365da7	-0.00069567043
16	0xbabd2435	-0.0014430346
17	0x39e1d1aa	0.00043071556
18	0x3a9e1f07	0.001206369
19	0xbb7611e7	-0.0037547292
20	0xb88776cf	-6.4594315e-05
21	0x3a4f27ca	0.00079023524
22	0xb9cdba13	-0.00039239283
23	0xb9876caf	-0.00025830182
24	0x3a110c5d	0.00055331533
25	0xb89173f4	-6.935737e-05
26	0xba80f1b1	-0.0009837655
27	0xb8d385d8	-0.000100861944
28	0x37fe2d41	3.0300233e-05
29	0x381aff2b	3.6954105e-05
30	0x3976c841	0.00023534989
31	0xba8b1293	-0.0010610394
32	0x38a9015a	8.0588e-05
33	0x39b2bbf6	0.00034090847
34	0x1b9dba3f	2.609383e-22
35	0xb96f9863	-0.00022849585
36	0xb95e0fdf	-0.00021177482
37	0x3a30e88c	0.00067485194
38	0x39a08b3a	0.0003062131
39	0x3a059fc7	0.0005097356
40	0xb7289172	-1.0047444e-05
41	0xb9f23443	-0.00046196775
42	0x3a1beb9b	0.0005947889
43	0x173fcc45	6.1973253e-25
44	0x3a2ac0a1	0.00065136893
45	0xb9b0382d	-0.0003361119
46	0xb89d3d4c	-7.497761e-05
47	0x3a3b6dab	0.00071498257
48	0xbb1816ea	-0.0023207017
49	0x3911b5d9	0.00013896021
50	0x38e2d044	0.00010815312
51	0x39dc725f	0.00042046883
52	0xba15686c	-0.0005699459
53	0xbae33ad1	-0.0017336254
54	0x38166a76	3.5861936e-05
55	0xbaa9cfd5	-0.0012955616
56	0xbb4e70ee	-0.0031500417
57	0xbaa0746c	-0.0012241728
58	0x3a55f4fa	0.00081618095
59	0xb80b697c	-3.3238422e-05
60	0x3a563180	0.0008170828
61	0xb8e1a524	-0.00010759596
62	0xbbc3a31c	-0.005970372
63	0x3a07addc	0.00051757484
64	0x3a2bd3ec	0.0006554711
65	0x394298c0	0.00018558186
66	0xbaa249b2	-0.0012381582
67	0xb84fd9b8	-4.9555412e-05
68	0xb842a865	-4.6410034e-05
69	0x3b935565	0.004496264
70	0xb9729c41	-0.00023137128
71	0xbb60e56a	-0.003431643
72	0x389d7613	7.5083364e-05
73	0x3a8a8b6d	0.0010570117
74	0xbaffa666	-0.0019504547
75	0x3abe5c9f	0.0014523453
76	0xb98c1242	-0.00026716484
77	0xbbad1f97	-0.005283307
78	0x1bdadbfe	3.6207241e-22
79	0xb725275a	-9.843929e-06
80	0xbb1b8429	-0.0023729897
81	0x39ad87a0	0.0003309818
82	0x39fce29d	0.00048234026
83	0x3a8bdc1c	0.0010670456
84	0xb88c23ab	-6.682364e-05
85	0x3ac289f5	0.001484214
86	0xbb9cd0b5	-0.004785622
87	0xb90d5d36	-0.00013481532
88	0x3ac310b8	0.0014882302
89	0x396540c4	0.00021863269
90	0xb7eb14a4	-2.8023795e-05
91	0xb9793386	-0.00023765684
92	0xb893a84f	-7.040856e-05
93	0x3a406520	0.00073392875
94	0xb74039fb	-1.1457591e-05
95	0xb9776c4c	-0.000235961
96	0xb8386ba1	-4.3969256e-05
97	0xba1e99a6	-0.0006050117
98	0xba91bb17	-0.0011118379
99	0x3a35baa9	0.00069324166
100	0xb9361341	-0.00017364045
101	0x39d7516f	0.00041068668
102	0xb8338bbe	-4.280707e-05
103	0x3b89baeb	0.0042031906
104	0xb9517283	-0.00019974452
105	0x38b822ac	8.780262e-05
106	0xb9b91e65	-0.00035308595
107	0x3a957f02	0.0011405649
108	0xb4316d07	-1.6524073e-07
109	0xb94f3e0b	-0.00019764171
110	0xbb03c26a	-0.0020104893
111	0x3ac29e0f	0.001484813
112	0xbb9cfdf5	-0.004791016
113	0x3a0d7a4c	0.0005396947
114	0x3a80fb99	0.0009840607
115	0x367390bf	3.6294075e-06
116	0x3abda780	0.0014469475
117	0xb94b2063	-0.00019371654
118	0x1d00c497	1.7042294e-21
119	0x3a1c81a1	0.0005970244
120	0xbaf6b7ee	-0.0018823126
121	0xb9ffa81a	-0.00048762636
122	0xbb0b0768	-0.0021214131
123	0x38900088	6.866554e-05
124	0xb8b0c822	-8.4296116e-05
125	0xbb13a443	-0.0022528328
126	0x3aa63503	0.0012680594
127	0x3b7e1927	0.0038772316

exp_avg_sq f4 [128]
0	0x35742c91	9.0961936e-07
1	0x33be4b87	8.861303e-08
2	0x359a5f80	1.1501688e-06
3	0x36837865	3.91812e-06
4	0x324b3a0e	1.1829355e-08
5	0x3501d344	4.8363677e-07
6	0x34ed2a37	4.4175405e-07
7	0x3110a1eb	2.1046798e-09
8	0x3540d1b7	7.183075e-07
9	0x35f537ad	1.8270126e-06
10	0x370ec234	8.509076e-06
11	0x32b77d10	2.1360876e-08
12	0x333c4d37	4.3842387e-08
13	0x336820c3	5.4046506e-08
14	0x374d6363	1.2242092e-05
15	0x366ae117	3.4999737e-06
16	0x36c06146	5.73337e-06
17	0x354541cc	7.3483966e-07
18	0x367d6859	3.7760676e-06
19	0x381e839f	3.7792717e-05
20	0x3362f8d9	5.284605e-08
21	0x36984dc8	4.539008e-06
22	0x35d71a13	1.6026337e-06
23	0x352d41e2	6.4543394e-07
24	0x3655bff1	3.1851198e-06
25	0x3312a8ca	3.4146787e-08
26	0x363a65e5	2.777547e-06
27	0x34d14e77	3.8986374e-07
28	0x32b6b3cd	2.1269353e-08
29	0x3445a01c	1.8405302e-07
30	0x35153ae2	5.559251e-07
31	0x35e11a5e	1.677148e-06
32	0x3590a413	1.0776588e-06
33	0x34e09264	4.1829765e-07
34	0x3056c92e	7.813864e-10
35	0x35157403	5.5675645e-07
36	0x35225779	6.047699e-07
37	0x355dd32d	8.2636217e-07
38	0x3488f2cd	2.5508635e-07
39	0x351abac2	5.764124e-07
40	0x30bd80fe	1.3788222e-09
41	0x353d35d8	7.048634e-07
42	0x3538a84d	6.879025e-07
43	0x2f85e3c4	2.4354396e-10
44	0x355a7e09	8.1394734e-07
45	0x3575ade9	9.1522685e-07
46	0x3606b42f	2.0072437e-06
47	0x358b1e51	1.036513e-06
48	0x37904df5	1.720244e-05
49	0x35b91740	1.3790341e-06
50	0x34a2dbb2	3.03347e-07
51	0x3561b093	8.407598e-07
52	0x35a2b821	1.2123529e-06
53	0x3731d47f	1.0599498e-05
54	0x340a7205	1.2893732e-07
55	0x35813d69	9.629122e-07
56	0x37e4bafc	2.726679e-05
57	0x3728bc9c	1.0057494e-05
58	0x360e1ea2	2.117748e-06
59	0x32a83ec5	1.9586318e-08
60	0x35c5f6b9	1.474945e-06
61	0x3508f959	5.1026797e-07
62	0x381dc023	3.761066e-05
63	0x356a0e5b	8.7192683e-07
64	0x35632412	8.461658e-07
65	0x35af0f42	1.3042957e-06
66	0x37725db0	1.4446137e-05
67	0x3526fabc	6.2204685e-07
68	0x34a60ed5	3.09307e-07
69	0x379eef12	1.8946394e-05
70	0x34b66563	3.397391e-07
71	0x37bf8792	2.2832104e-05
72	0x3387ef12	6.329914e-08
73	0x35ec24c5	1.7594072e-06
74	0x368d81c2	4.2172333e-06
75	0x36333b80	2.6707712e-06
76	0x3510bcfc	5.391919e-07
77	0x389ade77	7.3847295e-05
78	0x2f1f9ed6	1.4517396e-10
79	0x35a59b7f	1.2338713e-06
80	0x3796f2b5	1.7994413e-05
81	0x35b382a6	1.3374563e-06
82	0x3597199d	1.1257831e-06
83	0x35d5716e	1.5902749e-06
84	0x34453ad3	1.8368455e-07
85	0x3704b3c8	7.909672e-06
86	0x383a1f01	4.437473e-05
87	0x349dd3e4	2.93977e-07
88	0x35a61ea4	1.2376881e-06
89	0x3599e81f	1.1466944e-06
90	0x33d4407e	9.88375e-08
91	0x34e43583	4.2507244e-07
92	0x35158399	5.5698325e-07
93	0x369855d3	4.5399443e-06
94	0x313c8326	2.743215e-09
95	0x360887bf	2.0344594e-06
96	0x3371594e	5.6193407e-08
97	0x358c7cd4	1.0467143e-06
98	0x3569bf37	8.707752e-07
99	0x35840513	9.836243e-07
100	0x35818ce1	9.65225e-07
101	0x34fca4d5	4.705859e-07
102	0x31d99d2f	6.333401e-09
103	0x3834a731	4.3071053e-05
104	0x35a336af	1.2160361e-06
105	0x350e7bd1	5.30793e-07
106	0x35019119	4.826739e-07
107	0x355eee79	8.304847e-07
108	0x312824c2	2.4468112e-09
109	0x35332fc5	6.675221e-07
110	0x37e1a7f8	2.6900307e-05
111	0x36500766	3.0998722e-06
112	0x37a34126	1.9461451e-05
113	0x359aa09d	1.1520639e-06
114	0x35b3323f	1.3351163e-06
115	0x319fab1e	4.646963e-09
116	0x36aa9d32	5.0846947e-06
117	0x34abd93c	3.200929e-07
118	0x2f8c9b6f	2.5576294e-10
119	0x3575f2d1	9.1622957e-07
120	0x385359d0	5.0389965e-05
121	0x37bba95a	2.2370998e-05
122	0x3701a9c9	7.72853e-06
123	0x351c0696	5.812411e-07
124	0x33dc0e88	1.02471915e-07
125	0x379d7a6a	1.8772862e-05
126	0x35b450db	1.3434577e-06
127	0x378447a2	1.5768983e-05

exp_avg f4 [64, 128]
0	0x26e39324	1.5791172e-15
1	0xa313e32f	-8.016994e-18
2	0x38a25ef2	7.742447e-05
3	0x37e907b5	2.7779353e-05
4	0x280195fd	7.193462e-15
5	0x380be5e1	3.3354274e-05
6	0xb59d829e	-1.1735426e-06
7	0x1938c61b	9.552584e-24
8	0x391ec75d	0.00015142323
9	0x2f033b8f	1.193554e-10
10	0x38131a6e	3.5072146e-05
11	0x15f97a7b	1.0076354e-25
12	0x1a073207	2.7957757e-23
13	0x2718b73f	2.1193575e-15
14	0x37aa5c6f	2.0308622e-05
15	0xb41d2f8c	-1.4639062e-07
16	0x36a28015	4.842887e-06
17	0x38629a08	5.402605e-05
18	0x3824eafb	3.931949e-05
19	0x37593e64	1.2948734e-05
20	0x34a1eff6	3.0163181e-07
21	0x370ac331	8.2708875e-06
22	0x34d6e2c3	4.0025597e-07
23	0x3884e953	6.3377105e-05
24	0x3544de47	7.3339146e-07
25	0x32f811b4	2.887905e-08
26	0x3688886f	4.068999e-06
27	0xb5611ee2	-8.386397e-07
28	0x99cdea01	-2.1291017e-23
29	0x381b9bfe	3.710016e-05
30	0x3785ca13	1.5948934e-05
31	0x35225cba	6.048464e-07
32	0xb53e089d	-7.079305e-07
33	0x36b6eab3	5.4513453e-06
34	0x177b6b8d	8.123822e-25
35	0xa89c05d2	-1.7322003e-14
36	0x38b8c6fa	8.810866e-05
37	0xb6d54f4e	-6.357127e-06
38	0x37742d70	1.4554113e-05
39	0x3929dfaa	0.00016200417
40	0x00000000	0.0
41	0x2e651d7c	5.209476e-11
42	0x37f39793	2.903844e-05
43	0x00000000	0.0
44	0x3897b840	7.23456e-05
45	0x38d0aa3e	9.949923e-05
46	0x352dcb9a	6.47438e-07
47	0x385e533e	5.300645e-05
48	0x3744f67c	1.17398995e-05
49	0x383a8a49	4.4474644e-05
50	0x3789de2c	1.643513e-05
51	0x38231c16	3.8888385e-05
52	0x38e39358	0.000108516484
53	0x37beca29	2.2743903e-05
54	0x32d7d5f4	2.5126589e-08
55	0x35a2c007	1.2125828e-06
56	0x362978fb	2.5253382e-06
57	0x372face9	1.0471072e-05
58	0xb61e765b	-2.3612727e-06
59	0x1afc000e	1.04224846e-22
60	0x388e14db	6.774972e-05
61	0x391e9a73	0.00015125591
62	0x3707ef46	8.102337e-06
63	0x38703fa3	5.7279725e-05
64	0x389f9e61	7.611211e-05
65	0xa9079b43	-3.011069e-14
66	0x35eb38f6	1.7525442e-06
67	0x39145ecb	0.00014149693
68	0x34928820	2.7293663e-07
69	0x37f60d8d	2.9331795e-05
70	0x3442728f	1.8109334e-07
71	0x3763ff23	1.3589658e-05
72	0x32495bd3	1.1720618e-08
73	0x37d3c000	2.5242567e-05
74	0x381515a7	3.5544534e-05
75	0x379399b2	1.7595336e-05
76	0x38717206	5.756507e-05
77	0x377669b2	1.4687352e-05
78	0x110d73c2	1.1158609e-28
79	0x3843e973	4.670904e-05
80	0x375efc4d	1.32909745e-05
81	0x36846fe5	3.946933e-06
82	0x377b3ffa	1.49756615e-05
83	0x389c4f53	7.453435e-05
84	0xa6979243	-1.0517374e-15
85	0xb4cfa94c	-3.8679934e-07
86	0x372cf80d	1.0309753e-05
87	0x30ad507b	1.2610281e-09
88	0x38b2e7a3	8.530847e-05
89	0x38859987	6.370531e-05
90	0xa8cde8f9	-2.2860608e-14
91	0x38eac34d	0.00011194367
92	0x38e23659	0.00010786643
93	0x3490569e	2.6885112e-07
94	0xa986233d	-5.956908e-14
95	0x35324fc2	6.642623e-07
96	0x32859931	1.5552901e-08
97	0x34ff0278	4.7499248e-07
98	0x3859bbec	5.1911848e-05
99	0x38387008	4.3973356e-05
100	0x345fd441	2.0845711e-07
101	0x388a161c	6.584471e-05
102	0xa7f46df5	-6.784282e-15
103	0x36f913aa	7.4230675e-06
104	0x387b3016	5.9887847e-05
105	0x3562290d	8.42513e-07
106	0x38d51df4	0.00010162211
107	0x37bb0f16	2.2299162e-05
108	0x92ae5495	-1.1001795e-27
109	0x35463a9f	7.384605e-07
110	0x36e757f7	6.894577e-06
111	0x38b90890	8.823082e-05
112	0x359f2502	1.1857194e-06
113	0x37b89a8c	2.2006476e-05
114	0x3889c702	6.569737e-05
115	0x1316378c	1.8960048e-27
116	0x38133349	3.5095294e-05
117	0xa9fafe26	-1.1146318e-13
118	0x193907d0	9.5658536e-24
119	0x380408fb	3.1479616e-05
120	0x3768f4d7	1.3885284e-05
121	0xb53e8bd3	-7.0983987e-07
122	0x378ce0c6	1.6793969e-05
123	0x38eb94b4	0.00011233371
124	0x327b3291	1.462162e-08
125	0x37b6f5d3	2.1810562e-05
126	0x3788e057	1.631693e-05
127	0xb5c7f3b8	-1.4897587e-06
128	0x375147e3	1.2474108e-05
129	0x36196601	2.285815e-06
130	0x399b46ff	0.000296168
131	0x3aeb8b32	0.0017970561
132	0xb1f96d1c	-7.259258e-09
133	0xbb0418d6	-0.0020156405
134	0x3b0ff7bc	0.002196773
135	0xabb81827	-1.308069e-12
136	0x3bcfa6a6	0.0063370047
137	0x37eabf7d	2.7984142e-05
138	0x3a9b3fec	0.0011844612
139	0x36e6853f	6.870046e-06
140	0x364140e7	2.879702e-06
141	0xb658106e	-3.2196072e-06
142	0x3a3c427b	0.0007181537
143	0x35d2d01f	1.570679e-06
144	0x390847e7	0.00012996756
145	0xbab98890	-0.0014155079
146	0x3ab72ad3	0.0013974555
147	0x38142f4e	3.5330006e-05
148	0x36921094	4.353069e-06
149	0xb746d883	-1.185213e-05
150	0x365263cc	3.1350528e-06
151	0x3b303ca0	0.0026891604
152	0xb643fd46	-2.920469e-06
153	0x36119805	2.169517e-06
154	0x39b344a5	0.00034192685
155	0x363935a3	2.759837e-06
156	0x35fe84f3	1.8963168e-06
157	0x3b0253e5	0.001988643
158	0x3ab56faf	0.0013842488
159	0x376d095b	1.4128479e-05
160	0x3680a1a9	3.833517e-06
161	0x3a80c298	0.0009823618
162	0x00000000	0.0
163	0x357d1047	9.427353e-07
164	0x3b1aa9c5	0.0023599726
165	0x3b862eb7	0.0040949243
166	0xb90fc894	-0.00013712264
167	0x3b675b81	0.0035302343
168	0x348411ec	2.4599956e-07
169	0x37744095	1.455857e-05
170	0x3aefbc29	0.0018290329
171	0x00000000	0.0
172	0x3b1cde4b	0.0023936208
173	0x3b2f5aed	0.0026757077
174	0x37241b0c	9.781459e-06
175	0x3b910a0d	0.004426247
176	0x3992b24c	0.00027980132
177	0x3aff29ac	0.0019467375
178	0x3b3a2b68	0.002840722
179	0x3a6a4987	0.0008937348
180	0xbaeb1aaa	-0.0017937024
181	0x39a0aae3	0.000306449
182	0x355649e0	7.9828715e-07
183	0x3934d5a7	0.0001724573
184	0x392a0041	0.00016212558
185	0x38dbd822	0.00010482992
186	0xb7b3bc7c	-2.1426233e-05
187	0x36542a66	3.161514e-06
188	0x3afd0151	0.001930276
189	0x38a25113	7.739863e-05
190	0x395d9adc	0.00021133892
191	0x3b67f214	0.0035392093
192	0x3b11fdd8	0.0022276547
193	0xb7189f89	-9.097051e-06
194	0x39199d86	0.00014649899
195	0xbb073020	-0.002062805
196	0xb70aa5ea	-8.264071e-06
197	0x3a5a5bd5	0.0008329724
198	0x370d4662	8.420642e-06
199	0x38ea2d5a	0.00011166437
200	0x3719d906	9.17004e-06
201	0x38e6e37f	0.00011009629
202	0x3bbbf6eb	0.005736222
203	0x399763e1	0.0002887538
204	0x3b5f71f4	0.003409502
205	0x394cce19	0.00019531733
206	0x1118fd64	1.2068768e-28
207	0x3ae9f34c	0.0017848997
208	0x3949e56a	0.00019254317
209	0x3770aac5	1.4344875e-05
210	0xbaafee97	-0.0013422546
211	0x3aded12a	0.0016999592
212	0x35bdaab3	1.4131277e-06
213	0x389dc23c	7.522522e-05
214	0x38dfe419	0.00010675955
215	0xb79656ab	-1.7921751e-05
216	0x3b3a0bb3	0.002838832
217	0x3b853240	0.004064828
218	0xb7f680e0	-2.9385497e-05
219	0x3b58f2e3	0.0033103756
220	0x3b85f4b2	0.004088008
221	0x3a2c46e2	0.00065718417
222	0x314c4039	2.9722413e-09
223	0x36e56217	6.836151e-06
224	0x3687eb53	4.050709e-06
225	0xb5883778	-1.0148933e-06
226	0x3b21cee7	0.0024689974
227	0x3ad4419e	0.0016193872
228	0xb7675402	-1.37882325e-05
229	0x3b15a6f4	0.0022835108
230	0xb67fdbdb	-3.8125934e-06
231	0x39a84c1d	0.00032100166
232	0x3a8730c3	0.0010314215
233	0x38239dc1	3.9009148e-05
234	0x3b74c9f5	0.003735182
235	0x3a92fd30	0.0011214372
236	0x2dcaa99b	2.3040061e-11
237	0x36b86f27	5.496567e-06
238	0x39256941	0.00015774836
239	0x3b55531c	0.0032550758
240	0x3969c03c	0.00022292224
241	0x3ac1b0e2	0.0014777447
242	0x3aaf96db	0.0013396399
243	0xb3f83d4f	-1.1559552e-07
244	0x3af425cd	0.0018626988
245	0xb47c6ba1	-2.3508484e-07
246	0x00000000	0.0
247	0x3aae2dfe	0.0013288853
248	0x39168f85	0.0001435858
249	0xb965885b	-0.00021889938
250	0x39d939fb	0.00041432664
251	0x3b155578	0.002278654
252	0x349b4ab3	2.892535e-07
253	0x3a1bf0f7	0.00059486873
254	0x3aa1c9df	0.0012343487
255	0x397b9a57	0.00023994721
